fraud_detection_nn.pth (torch, 786306 bytes, 13 tensors)

fc1.weight f4 [128, 1453]
0	0xbf96eb01	-1.1790468
1	0xbd427c2a	-0.047481693
2	0x3ed6f291	0.41981938
3	0xc08f0bb2	-4.4701777
4	0xbe3a2da7	-0.18181477
5	0x3e7e2ae5	0.2482105
6	0xbf715857	-0.9427542
7	0x3f6eeb06	0.9332737
8	0xc0527225	-3.2882168
9	0x3e11fb46	0.1425601
10	0x401c7a71	2.4449732
11	0x3f9c2f3e	1.2201917
12	0x3f973444	1.1812825
13	0x407035aa	3.7532754
14	0x3fcfbf15	1.6230189
15	0xbfaee040	-1.3662186
16	0x3f31af0d	0.6940773
17	0xc00b58b8	-2.17729
18	0xbfe8777b	-1.8161463
19	0xbfc105ab	-1.5079855
20	0xc000baa4	-2.0113916
21	0xc01ebc69	-2.4802496
22	0xbf7c9f69	-0.9868074
23	0xc022bbb8	-2.5427074
24	0xbf5c2830	-0.8599882
25	0xbfd5e37c	-1.6710048
26	0xbff25583	-1.8932346
27	0xbf86dec9	-1.0536739
28	0xbf8f3698	-1.1188536
29	0xbf66d63f	-0.90170664
30	0xbfaea439	-1.3643867
31	0xbfa8e821	-1.319584
32	0x3e3490f4	0.1763342
33	0xbfb3c1f4	-1.4043565
34	0x3efce551	0.49393705
35	0x3eb258e3	0.3483344
36	0xc02af77d	-2.6713555
37	0xbf75e492	-0.96051896
38	0xbff7f9bc	-1.9373088
39	0xc01af738	-2.421339
40	0xbfb88c8d	-1.4417893
41	0xc0162002	-2.3457036
42	0xbf0a03de	-0.5391215
43	0xc03a8b06	-2.9147353
44	0xbfa35ae4	-1.2762113
45	0xbfe45f05	-1.7841498
46	0xbf9748ba	-1.1819069
47	0xc0004e3e	-2.0047755
48	0xbf9b122f	-1.2114924
49	0xc0448752	-3.0707593
50	0xbfb49b1e	-1.4109838
51	0xbfe89525	-1.8170515
52	0xbeee52e8	-0.46547627
53	0xc00d3cc1	-2.2068331
54	0xbfb618a0	-1.4226265
55	0xc0355afe	-2.8336787
56	0xc029491a	-2.6450868
57	0xc00c5f9a	-2.193335
58	0xbea4ffcc	-0.32226408
59	0xc00efb26	-2.234079
60	0xbe0fe058	-0.14050424
61	0xbec420c7	-0.38306257
62	0xc0185d6d	-2.3807023
63	0xc012a15a	-2.291098
64	0xbffc30e7	-1.9702424
65	0xbf52afed	-0.8229969
66	0xc022e814	-2.545415
67	0x3d8e7b60	0.06957126
68	0xc070eb08	-3.7643452
69	0xc03704e4	-2.8596735
70	0x3f995d88	1.1981668
71	0xbf8bdcb7	-1.0926732
72	0xbfea78ea	-1.831815
73	0xbff26a7c	-1.8938746
74	0xbfdf1496	-1.7428157
75	0xbff2e4c5	-1.8976065
76	0xbff1edcd	-1.8900696
77	0xbfc618d8	-1.5476332
78	0xc0b298cb	-5.5811515
79	0xbf67438a	-0.9033743
80	0xbe2e41fc	-0.17017359
81	0xbf860b2b	-1.0472158
82	0xc020aa7f	-2.5104063
83	0xbf69a017	-0.912599
84	0xbf976c25	-1.1829878
85	0x3e322a60	0.17398977
86	0xbf981a82	-1.188309
87	0xc02d2692	-2.7054791
88	0xbf5f3f4d	-0.87205964
89	0xbf920c33	-1.1409973
90	0xc01e4ed5	-2.4735615
91	0xbfb2cb2a	-1.3968251
92	0xbf10e95b	-0.5660607
93	0xbf94fc33	-1.1639465
94	0xbeae54de	-0.34049124
95	0xbfe14068	-1.759778
96	0xbf142730	-0.57872295
97	0xbfeabb1e	-1.8338354
98	0xbf1446db	-0.57920617
99	0xbff65ad6	-1.9246471
100	0xbea8b1da	-0.3294819
101	0xbda95b67	-0.08269387
102	0xbfbcaeeb	-1.4740881
103	0xc0688a50	-3.633442
104	0xc01b1a68	-2.4234867
105	0xbfb598a5	-1.4187208
106	0x3f5592fa	0.83427393
107	0xc037b1bf	-2.8702238
108	0xc02b1e0a	-2.6737084
109	0xbf0bbc11	-0.5458384
110	0xbf5e5edb	-0.8686349
111	0xbfeffe51	-1.8749486
112	0xbfe6b0cc	-1.8022704
113	0xc049ae1a	-3.1512513
114	0xbf4f8d6f	-0.81075186
115	0xc021659a	-2.5218263
116	0xc02787ed	-2.6176713
117	0xbfeaeac9	-1.8352901
118	0xc01c825e	-2.445457
119	0xc0100d02	-2.250794
120	0xbfdcf9b9	-1.7263709
121	0xbe79abf9	-0.24382009
122	0xbfde6c98	-1.737689
123	0xbf081630	-0.53158855
124	0xc0546f6e	-3.3193011
125	0xbfdfafbd	-1.7475506
126	0x3f42a93c	0.7603948
127	0xc01f7ccc	-2.491992
128	0x3ea22f34	0.31676638
129	0xc0105ec6	-2.2557845
130	0xc0010e89	-2.0165122
131	0xbfe76d69	-1.8080264
132	0xbf15a5bd	-0.5845602
133	0xbf9a69c5	-1.2063528
134	0xbf94b469	-1.1617557
135	0xbe3c2610	-0.18373895
136	0xbfaaeaf2	-1.335295
137	0xbf285667	-0.6575684
138	0xbf62ae12	-0.8854686
139	0xbf647c4e	-0.89252174
140	0xbfd470df	-1.6596946
141	0xbfe6c04d	-1.8027436
142	0xc0160c07	-2.344484
143	0xbf5b989c	-0.8577974
144	0xc05973d1	-3.3976939
145	0xc022b0da	-2.5420442
146	0xc00f4bc5	-2.2389996
147	0xbfa9861a	-1.324405
148	0xc0235024	-2.5517664
149	0xc00386c2	-2.0551
150	0x3e855e52	0.26048523
151	0xbf0c698e	-0.54848564
152	0xbfec66a8	-1.8468828
153	0xbf5e3179	-0.8679424
154	0xbfd58c16	-1.6683376
155	0x3f096b00	0.53678894
156	0xbfbf7fd0	-1.496088
157	0xbfd24e07	-1.6430062
158	0xbfae96fd	-1.3639828
159	0xc00938ef	-2.1441
160	0xc02e21ca	-2.7208123
161	0xc054016a	-3.3125863
162	0xc033d956	-2.8101401
163	0xc029f663	-2.6556633
164	0xbf6306be	-0.8868216
165	0x3f8cc386	1.0997169
166	0xc00e2af0	-2.2213707
167	0xbfd37b26	-1.6521957
168	0x3ded4b2a	0.11586602
169	0xbfaf3510	-1.3688068
170	0xbeb05c86	-0.3444559
171	0xbf47d6d8	-0.780622
172	0xc021d93b	-2.5288837
173	0xc054ca16	-3.3248343
174	0xc01fb3b9	-2.4953444
175	0xbfd8003d	-1.6875073
176	0xbfdc5c86	-1.7215736
177	0xc0271051	-2.6103709
178	0xbf5281d2	-0.8222934
179	0xbf2806cb	-0.65635365
180	0xbff0484a	-1.8772061
181	0xc003c27f	-2.058746
182	0x3f33761b	0.7010209
183	0xbf506190	-0.8139887
184	0xc001b524	-2.026681
185	0xbecbee9d	-0.39830485
186	0xbfa18192	-1.2617667
187	0xbf33958b	-0.7015006
188	0xc014fd6b	-2.3279674
189	0xbf94c38c	-1.1622176
190	0xbfafbca8	-1.3729448
191	0xbfbee433	-1.4913391
192	0xc0290946	-2.641191
193	0xbffce2be	-1.9756696
194	0xbf231ecf	-0.63718885
195	0xc00f34de	-2.2376018
196	0xc0639a19	-3.5562804
197	0xc01b714c	-2.42879
198	0xbf00b14a	-0.5027052
199	0xbfa060db	-1.2529558
200	0xc087c382	-4.2426157
201	0xc00f7946	-2.241777
202	0xbe3845c8	-0.1799537
203	0xbf53e6f5	-0.8277429
204	0xbf66ed27	-0.90205616
205	0xc041d510	-3.0286293
206	0xbf44900f	-0.76782316
207	0xc0572bbb	-3.362044
208	0xbfd16bc1	-1.6361009
209	0xbf26c312	-0.65141404
210	0xbfe248c9	-1.7678462
211	0x3f37a7ad	0.7174023
212	0xc010246e	-2.2522235
213	0xc010df61	-2.263634
214	0xc04fc21f	-3.2462232
215	0xbfb25b62	-1.3934138
216	0xbf93419b	-1.1504396
217	0xc02df5e6	-2.7181334
218	0x3f77ebf8	0.96844435
219	0x3f42c119	0.76075894
220	0xbf1916b8	-0.5980029
221	0xbe9a887a	-0.30182248
222	0xc02ff6d4	-2.7494402
223	0xbf61f6a7	-0.88266987
224	0xc058adc5	-3.385606
225	0xc0196163	-2.396569
226	0xbfdd03ff	-1.7266845
227	0xc0362a31	-2.8463252
228	0xbfbb3831	-1.4626523
229	0xbf2d92a3	-0.67801875
230	0xbf771e49	-0.96530586
231	0xbdb3e1a7	-0.08783274
232	0xc03fc2c8	-2.9962635
233	0xbf959653	-1.16865
234	0xbfb27b79	-1.3943931
235	0x3e0cc9d5	0.13748868
236	0xc0402803	-3.0024421
237	0xc08c00c4	-4.3750935
238	0xbf87955d	-1.0592457
239	0xbfd2fe44	-1.6483846
240	0xc00b1cff	-2.1736448
241	0xbf545d9a	-0.82955325
242	0xbeacf96a	-0.33784038
243	0xbfd56485	-1.6671301
244	0xc0190d31	-2.3914301
245	0xc024881c	-2.5708075
246	0xc0727f52	-3.789021
247	0xc0850266	-4.156543
248	0xc06110cd	-3.5166504
249	0xc0553a18	-3.3316708
250	0xc046d098	-3.1064816
251	0xbf187261	-0.5954953
252	0xbfb727b7	-1.4308995
253	0xbfd7e29e	-1.6866033
254	0xc01c814a	-2.4453912
255	0xc01180b0	-2.2734795

fc1.bias f4 [128]
0	0xbc1772da	-0.009243691
1	0xbf4b1fd8	-0.79345465
2	0xbe0078cb	-0.12546079
3	0x3e89f193	0.2694212
4	0x3f120c84	0.5705035
5	0x3b1b354c	0.002368289
6	0xbae61abd	-0.0017555576
7	0xbec98e0b	-0.39366183
8	0x3c8caf23	0.017173355
9	0xbe95d473	-0.29263648
10	0x3ea54d58	0.3228557
11	0x3e9bfaed	0.3046488
12	0xbddfd0d1	-0.109285004
13	0x3e413f5a	0.18871823
14	0x3e8625fe	0.2620086
15	0xbe178115	-0.14795335
16	0xbf18e809	-0.5972906
17	0x3d731833	0.05934925
18	0x3eb6ea69	0.35725716
19	0xbe8fe6c5	-0.2810575
20	0x3c23d312	0.009999054
21	0xbe0c76f3	-0.1371725
22	0xbf01525f	-0.50516313
23	0x3f0285b9	0.50985295
24	0xbe400b8a	-0.18754402
25	0xbed26e22	-0.4109965
26	0x3de84780	0.113417625
27	0x3d8e38a4	0.06944397
28	0xbcbd9dbc	-0.023146503
29	0x3e5af495	0.21382363
30	0x3dc32c9f	0.09529995
31	0x3e7f52eb	0.24933974
32	0xbe0de877	-0.1385821
33	0x3d45ebe1	0.048320655
34	0xbed7f4d3	-0.42178974
35	0xbe1bcfa6	-0.1521593
36	0xbdbdb5b9	-0.092631765
37	0xbd4bccc9	-0.049755845
38	0x3f0ebf6d	0.5576084
39	0xbcda2e22	-0.026633326
40	0x3e6f93bc	0.233962
41	0x3e87b75a	0.26507074
42	0xbeab409a	-0.33447725
43	0x3eadc673	0.33940467
44	0xbec1a3e0	-0.3782034
45	0xbe33215b	-0.17493193
46	0xbd433548	-0.047658235
47	0xbe93f173	-0.2889515
48	0xbe69967f	-0.22811316
49	0x3e2d0b8e	0.16898939
50	0x3ef08a22	0.46980387
51	0xbe4b536e	-0.19856045
52	0x3ea1d92a	0.31610996
53	0x3d8d458e	0.06898032
54	0x3e3fc957	0.18729149
55	0x3ea0efa4	0.3143283
56	0x3e342136	0.17590794
57	0xbd8a13da	-0.06742068
58	0x3eb25e49	0.3483756
59	0xbdcd5fc1	-0.10028029
60	0xbe935a7d	-0.28779975
61	0xbf0dee58	-0.5544181
62	0xbef382a3	-0.47560605
63	0x3d84f352	0.06491722
64	0x3e42f2ed	0.19037981
65	0xbcd709dc	-0.026249819
66	0x3f2bd25a	0.67117846
67	0x3e9cdb02	0.3063584
68	0x3e0fb17d	0.1403255
69	0x3ed0308d	0.4066204
70	0x3f16d735	0.5892213
71	0xbb934e75	-0.004495437
72	0x3e7e7818	0.248505
73	0xbe596811	-0.21231104
74	0xbed5c8b3	-0.41754684
75	0x3c083829	0.008314171
76	0xbda5637d	-0.080756165
77	0xbe04c49e	-0.12965629
78	0xbcd4d5e7	-0.025980903
79	0xbd3780ca	-0.044800557
80	0x3f07489f	0.52845186
81	0xbdf90b60	-0.12160373
82	0x3ed44390	0.41457796
83	0xbd14c3a3	-0.036319386
84	0x3e61fd72	0.22069338
85	0xbda76e4e	-0.08175336
86	0x3ebd9bf5	0.37033048
87	0x3dd399f0	0.103320956
88	0x3d5290b1	0.05140752
89	0xbcf28633	-0.029605007
90	0x3ed85f60	0.42260265
91	0xbe9a0142	-0.30079085
92	0x3ec7e07b	0.39038453
93	0x3e3159a2	0.17319348
94	0x3e9aa5f1	0.30204728
95	0xbe70756f	-0.23482297
96	0x3d8a697c	0.06758401
97	0x3ebb890d	0.36628
98	0x3e6ba62c	0.23012608
99	0xbc510d5a	-0.012759531
100	0xbec899ba	-0.39179784
101	0x3e00f8c8	0.12594903
102	0x3e26f77f	0.1630535
103	0x3efa023e	0.48829836
104	0xbebff8ad	-0.37494412
105	0x3d992836	0.07478373
106	0x3e5b27d0	0.21401906
107	0xbefeee0b	-0.49790987
108	0xbda25ae7	-0.079274945
109	0x3ef9b4a8	0.48770642
110	0xbf36e1fc	-0.71438575
111	0x3c9d36fa	0.019191254
112	0x3e33ade1	0.17546798
113	0xbde3c171	-0.111208804
114	0xbd94ebc0	-0.07271528
115	0x3eb24fa7	0.34826395
116	0xbef400aa	-0.47656757
117	0xbdb7271b	-0.08943006
118	0xbe571bcd	-0.21006699
119	0x3d9b16ce	0.07572709
120	0x3eeb2998	0.4593017
121	0xbee23e58	-0.4418819
122	0xbe3d79d6	-0.18503508
123	0xbf2b49d7	-0.66909546
124	0x3e1cce6f	0.15313123
125	0x3e2c3008	0.16815197
126	0x3d56ced0	0.052443326
127	0x3ce3cc29	0.027807312

bn1.weight f4 [128]
0	0x3f522256	0.8208364
1	0x3f203f0b	0.62596196
2	0x3f4cc4a5	0.79987556
3	0x3f48e224	0.78470063
4	0x3fcda726	1.6066635
5	0x3fc03d91	1.5018789
6	0x3fc4b44a	1.536752
7	0x3eebcb75	0.46053663
8	0x3fd13243	1.6343464
9	0x3f7b292d	0.98109704
10	0x3fdcf9d1	1.7263738
11	0x3f802265	1.0010496
12	0x3fafd8bc	1.3738017
13	0x3f0f7dc9	0.5605131
14	0x3fddb1ed	1.7319924
15	0x3f9489d2	1.160456
16	0x3fb02a6b	1.3762945
17	0x3fd5520f	1.6665667
18	0x3ec5cb0e	0.3863148
19	0x3fe5ab73	1.7942947
20	0x3fc03b26	1.5018051
21	0x3efde973	0.4959217
22	0x3f9c9e53	1.2235817
23	0x3f0d2f19	0.5514999
24	0x3efe429e	0.496602
25	0x3fd821bf	1.6885298
26	0x3fe38298	1.7774229
27	0x3fd39fc7	1.6533135
28	0x3fb7ac09	1.4349376
29	0x3fba9e3b	1.4579538
30	0x3fd9aec0	1.7006454
31	0x3fdb5c55	1.7137552
32	0x3fcb0164	1.5859799
33	0x3fbf40f3	1.4941696
34	0x3fcfa14c	1.6221099
35	0x3fb0a7c9	1.3801204
36	0x3f8f2094	1.1181817
37	0x3f52eb2b	0.8239009
38	0x3fdd25dc	1.7277179
39	0x3fbc0523	1.4689068
40	0x3fc9f7f4	1.5778794
41	0x3fb84e9a	1.4398987
42	0x3fc8c005	1.56836
43	0x3fc4bf96	1.5370967
44	0x3f7f4531	0.9971495
45	0x3fce0534	1.6095338
46	0x3fc5dd8a	1.5458233
47	0x3fca8aba	1.5823586
48	0x3f860e1b	1.0473055
49	0x3f8bbc72	1.0916884
50	0x3f9f9789	1.246812
51	0x3f37594c	0.7162063
52	0x3f4faf00	0.81126404
53	0x3fb38ddc	1.4027667
54	0x3f0374fe	0.5135039
55	0x3fe07682	1.7536166
56	0x3fbaf2ed	1.4605385
57	0x3fc3011f	1.5234717
58	0x3f78707e	0.9704665
59	0x3fb696e9	1.4264804
60	0x3fcea6d2	1.614466
61	0x3ef001f3	0.46876487
62	0x3f10f44c	0.5662277
63	0x3fa79ba7	1.3094376
64	0x3fb7c27d	1.4356228
65	0x3fc23022	1.5170939
66	0x3f533d2f	0.82515234
67	0x3f97370d	1.1813675
68	0x3fb49dab	1.4110616
69	0x3f8a707c	1.0815578
70	0x3f01803c	0.50586295
71	0x3f77c8f7	0.96791023
72	0x3fb4bec1	1.4120713
73	0x3fc429a2	1.5325205
74	0x3f1c5c0b	0.61077946
75	0x3f00c85e	0.50305736
76	0x3faa5af8	1.3309011
77	0x3f6d6511	0.9273234
78	0x3f39e5ba	0.7261616
79	0x3fe2270f	1.766817
80	0x3fa3ec36	1.2806461
81	0x3f8f7ecb	1.1210569
82	0x3f855caf	1.041891
83	0x3f1495af	0.580409
84	0x3f456801	0.7711182
85	0x3f5c4124	0.86036897
86	0x3f2ccaf3	0.67497176
87	0x3eca8cfb	0.39560685
88	0x3ee5756e	0.44816154
89	0x3fb66057	1.424815
90	0x3ee9774a	0.45598823
91	0x3f376fbe	0.7165488
92	0x3f840939	1.0315315
93	0x3f5630a5	0.83667976
94	0x3ee5b933	0.44867858
95	0x3f30a038	0.68994474
96	0x3f836723	1.026585
97	0x3f8a4c65	1.0804564
98	0x3f4d1561	0.80110747
99	0x3f60080d	0.87512285
100	0x3f362969	0.71156937
101	0x3fc96199	1.573291
102	0x3fa813e0	1.3131065
103	0x3f0b4a6c	0.54410434
104	0x3f96424e	1.1738985
105	0x3f86d73f	1.0534438
106	0x3f93dea5	1.1552321
107	0x3f9a0614	1.2033105
108	0x3faea115	1.3642908
109	0x3f8696c3	1.0514759
110	0x3f45a659	0.7720695
111	0x3fbc6b7f	1.4720305
112	0x3f71451b	0.9424607
113	0x3fe1cc6f	1.7640513
114	0x3fdda22c	1.7315116
115	0x3fc36fdb	1.526851
116	0x3f5f2aa4	0.8717444
117	0x3fcdf98a	1.6091778
118	0x3f02bb67	0.51067203
119	0x3f9d63eb	1.2296118
120	0x3f787b7a	0.9706341
121	0x3f77e32b	0.96831006
122	0x3fa94016	1.3222682
123	0x3f0d3335	0.5515626
124	0x3fc5ccec	1.5453162
125	0x3fca4639	1.580268
126	0x3fd224bf	1.6417464
127	0x3f5e1fb1	0.8676711

bn1.bias f4 [128]
0	0xbdfd4703	-0.1236706
1	0xbfa00ee4	-1.2504544
2	0xbf7073e8	-0.9392686
3	0xbe7d622f	-0.24744485
4	0xbf613a35	-0.8797944
5	0xbf002f93	-0.5007259
6	0xbeacefe9	-0.33776787
7	0xbfb02753	-1.3762001
8	0xbf94721b	-1.1597322
9	0xbf913a8f	-1.1345996
10	0xbc212238	-0.009834819
11	0xbfe50df9	-1.7894889
12	0xbeb600b6	-0.35547417
13	0xbf9fb46e	-1.2476938
14	0xbf9c61b7	-1.221732
15	0xbf13f109	-0.57789665
16	0xbf08f958	-0.5350547
17	0xbf9f1cbd	-1.2430645
18	0xbf8f7d85	-1.121018
19	0xbf3968b3	-0.72425383
20	0xbf46084f	-0.7735643
21	0xbf81afff	-1.0131835
22	0xbf6e6ff2	-0.93139565
23	0xbf79819c	-0.97463393
24	0xbf9939b4	-1.1970735
25	0x3d82b55d	0.063822486
26	0xbc4e8c93	-0.012606758
27	0xbda669fb	-0.08125683
28	0xbdeb95ae	-0.115031585
29	0xbf48610c	-0.7827308
30	0xbf451103	-0.7697908
31	0xbd9c5f9b	-0.07635423
32	0x3d4fb2e6	0.05070772
33	0xbf7e977f	-0.99449915
34	0xbf572fa9	-0.840571
35	0xbf57b16d	-0.84255105
36	0xbf6c0053	-0.92187995
37	0xbef57ac6	-0.4794523
38	0xbfa338c1	-1.2751695
39	0x3dab2bf2	0.08357991
40	0xbdc7520c	-0.09732446
41	0xbe198680	-0.14992714
42	0xbf93393d	-1.1501843
43	0xbf64d900	-0.89393616
44	0xbe58aa88	-0.21158803
45	0xbf966eb1	-1.175253
46	0xbefe6a31	-0.49690393
47	0xbf67cde2	-0.9054853
48	0xbf8dbdb2	-1.1073515
49	0xbf4bfe55	-0.79684955
50	0x3dc517fe	0.09623717
51	0xbf6276d2	-0.88462555
52	0xbf83ab89	-1.0286723
53	0xbf836366	-1.0264709
54	0xbf8e258d	-1.110521
55	0xbfa4a98b	-1.286424
56	0xbf6fac58	-0.9362235
57	0xbf4e9630	-0.8069792
58	0xbfa7285c	-1.3059192
59	0xbf62f43b	-0.88653916
60	0xbf479e92	-0.77976334
61	0xbfa6a5d0	-1.3019352
62	0xbf4be52a	-0.7964655
63	0xbee012c8	-0.4376433
64	0xbefcca74	-0.4937321
65	0xbf542406	-0.8286747
66	0xbf8c70df	-1.0971946
67	0xbe1a8348	-0.15089142
68	0xbe3b9c28	-0.18321288
69	0xbfdf264a	-1.743356
70	0xbf86c3ca	-1.05285
71	0xbea1ca48	-0.3159964
72	0xbf475da6	-0.7787727
73	0xbf8d3d7e	-1.1034391
74	0xbf9c2d69	-1.2201358
75	0xbf81e0a9	-1.0146686
76	0xbf30f68e	-0.6912621
77	0xbf249306	-0.6428684
78	0xbf85314c	-1.0405669
79	0xbd69848c	-0.057011172
80	0xbe6b6989	-0.22989477
81	0xbec5625e	-0.3855161
82	0xbfe2b7bb	-1.771232
83	0xbf7e61ec	-0.99368167
84	0xbe39b93a	-0.18137065
85	0xbfa1e84b	-1.2649015
86	0xbfaaeb22	-1.3353007
87	0xbf930f68	-1.1489077
88	0xbf880189	-1.0625468
89	0xbea4f872	-0.322208
90	0xbf832008	-1.024415
91	0xbf9c28cb	-1.2199949
92	0xbf93b7a7	-1.1540421
93	0xbf3a9cf4	-0.7289574
94	0xbf8ad443	-1.0846027
95	0xbf4806a5	-0.7813514
96	0xbf68bb62	-0.90910923
97	0xbf3518bd	-0.7074087
98	0xbf30d393	-0.69072837
99	0xbf66b9da	-0.90127337
100	0xbf9fc1f5	-1.2481066
101	0x3e091f2f	0.13390802
102	0xbf7750e4	-0.96607804
103	0xbf966047	-1.1748132
104	0xbf600f89	-0.87523705
105	0xbf8bdc01	-1.0926515
106	0xbf94a879	-1.1613914
107	0xbf3c144d	-0.73468477
108	0xbf90c721	-1.1310769
109	0xbf973e68	-1.181592
110	0xbf8caff5	-1.0991198
111	0xbf720088	-0.9453206
112	0xbf92b7db	-1.1462358
113	0x3dfb0e0b	0.12258538
114	0xbe8e2e32	-0.2776962
115	0xbf54afc6	-0.8308071
116	0xbf888be3	-1.066769
117	0xbe050c51	-0.1299298
118	0xbf9f35cf	-1.2438296
119	0xbf6fd073	-0.93677443
120	0xbf8d0a0b	-1.101869
121	0xbd3fe6d4	-0.046850994
122	0xbf765ca8	-0.9623513
123	0xbf86e5a2	-1.0538828
124	0xbd0f7751	-0.0350259
125	0xbf77f46c	-0.96857333
126	0xbf4386a4	-0.7637732
127	0xbf91ff7d	-1.1406094

bn1.running_mean f4 [128]
0	0xbec6551c	-0.38736808
1	0x40a2dde8	5.089588
2	0xc00ee5bd	-2.232772
3	0xbfba1c34	-1.4539857
4	0xc0ad0761	-5.4071507
5	0xbfd8253e	-1.6886365
6	0xbf1db84a	-0.6160933
7	0x406fb33d	3.7453148
8	0xc138fbe6	-11.561499
9	0x410f7da6	8.968176
10	0xc05393fc	-3.3059072
11	0x401fac36	2.494886
12	0xc0952cb7	-4.6617084
13	0x40b16fbf	5.544891
14	0xc1195204	-9.582523
15	0xbfa5720a	-1.2925427
16	0x403f93f1	2.9934046
17	0xc12a013f	-10.625304
18	0x407f0683	3.9847724
19	0xc09305b5	-4.5944467
20	0xc0b5896e	-5.673026
21	0x40dce97f	6.903503
22	0x40af1f1e	5.4725485
23	0x40e1dcd6	7.0582075
24	0x40887ed1	4.2654805
25	0xc0ce3496	-6.443919
26	0xc089019d	-4.281447
27	0xc06b728d	-3.6788666
28	0xc081596e	-4.0421667
29	0xc0d37a9a	-6.608716
30	0xc09baa2d	-4.8645234
31	0xc062c7f5	-3.5434544
32	0xc07ee677	-3.9828165
33	0xc1101bae	-9.006758
34	0xc0831d02	-4.097291
35	0xc1010ef1	-8.066148
36	0x40b0a6fc	5.520384
37	0xc0655ac8	-3.5836658
38	0xc11ad11f	-9.676055
39	0xc0a4f670	-5.1550827
40	0xc0c9ab1f	-6.302139
41	0xbffd4ade	-1.9788473
42	0xc1268dd6	-10.409628
43	0xc084eb24	-4.1537037
44	0xbfd119e6	-1.6336029
45	0xc12aaf3e	-10.667784
46	0xc0a8dd10	-5.276985
47	0xc087ef9e	-4.248
48	0x40d3e721	6.621964
49	0x40bc02e3	5.8753524
50	0xc00ec53e	-2.2307887
51	0x41051e76	8.319937
52	0x4113ace0	9.229706
53	0x40ca2723	6.3172774
54	0x40a4b8cb	5.1475577
55	0xc1278c53	-10.471759
56	0xc09d9782	-4.9247446
57	0xc0b44160	-5.6329803
58	0x3fad8ce1	1.3558618
59	0xc134b133	-11.293262
60	0xc0c9bc9b	-6.304273
61	0x406d13bc	3.7043295
62	0x40c64e6c	6.197073
63	0x3f9087dc	1.1291461
64	0xbf9b70d4	-1.2143807
65	0xc0db7d25	-6.8590264
66	0x410803f8	8.500969
67	0xc001e51a	-2.0296082
68	0xc02a8024	-2.664071
69	0x4017d66d	2.3724625
70	0x40e44b67	7.1342044
71	0xbfaf3432	-1.3687804
72	0xc0bf9b67	-5.98772
73	0xc1383494	-11.512836
74	0x409e75ff	4.951904
75	0x40d2a37c	6.5824566
76	0xbefad610	-0.48991442
77	0xc097463f	-4.727325
78	0x40c84122	6.257951
79	0x3efd964b	0.49528727
80	0xc082847e	-4.0786734
81	0xc05dbd65	-3.4646847
82	0x401f4990	2.488865
83	0x40b9fc5d	5.812056
84	0x3e7ae6ed	0.24502154
85	0x40f3f7df	7.6240077
86	0x40d76131	6.730614
87	0x40763cef	3.847469
88	0x40c3bd0c	6.116827
89	0xbfdcc89b	-1.724872
90	0x40be1778	5.940365
91	0x40bb50d6	5.8536177
92	0x40cbf4d2	6.3736353
93	0xbfc264db	-1.5187029
94	0x409e5e9e	4.94905
95	0x4051395a	3.2691255
96	0x40b5e74c	5.6844845
97	0xbf56bc80	-0.8388138
98	0xbf83bf46	-1.0292747
99	0xbfcb0339	-1.5860358
100	0x40aaa2a1	5.332352
101	0xc04f4e81	-3.2391665
102	0xc102eec4	-8.183292
103	0x40a22a4f	5.0676646
104	0x40a44f2a	5.1346636
105	0xc03e7a04	-2.9761972
106	0x40cec6e1	6.461777
107	0x4099d276	4.806941
108	0x4109f3c4	8.622013
109	0xbf7172ca	-0.9431578
110	0x40d69d25	6.7066827
111	0xc110fcbe	-9.061705
112	0x3f82a891	1.0207692
113	0xc04fe8c1	-3.2485812
114	0xbf8f43e2	-1.1192591
115	0xc0dbfa60	-6.8743134
116	0x40e72a1d	7.223891
117	0xc0451be8	-3.0798283
118	0x408e1ea6	4.4412413
119	0x40b5377d	5.6630235
120	0x40e44b80	7.1342163
121	0xbfd14c63	-1.6351436
122	0xc1213b15	-10.076924
123	0x40c9597c	6.2921734
124	0xc05d77c4	-3.460435
125	0xc0ca6559	-6.3248715
126	0xc060ecd1	-3.5144541
127	0xbe7bb2ca	-0.24579921

bn1.running_var f4 [128]
0	0x41204dac	10.018963
1	0x408fd24d	4.4944215
2	0x3f9a0d65	1.2035338
3	0x40abec13	5.3725677
4	0x42253e63	41.310925
5	0x40b4afe9	5.6464734
6	0x40ef99e2	7.4875345
7	0x3fdc2362	1.7198298
8	0x42d1f366	104.97539
9	0x4042959e	3.040382
10	0x411674b5	9.403493
11	0x4011f88c	2.280795
12	0x3f7023e1	0.93804747
13	0x408a5a6f	4.3235393
14	0x429596da	74.79463
15	0x3f9ad97b	1.209762
16	0x411a64fc	9.649654
17	0x42b14160	88.627686
18	0x40becf2a	5.9627886
19	0x41311b7f	11.069213
20	0x418ac73d	17.347284
21	0x40177823	2.3667076
22	0x405f3296	3.4874625
23	0x4092ffe8	4.5937386
24	0x40bf5e5a	5.9802675
25	0x4008768e	2.132236
26	0x40e47d26	7.140277
27	0x41169d43	9.413394
28	0x40d2f71a	6.592664
29	0x419497a6	18.574047
30	0x41c03541	24.026003
31	0x410c1f8d	8.757703
32	0x40e0a55e	7.0201864
33	0x428816cb	68.04452
34	0x421ac0bd	38.68822
35	0x41b89b1d	23.075739
36	0x4135d245	11.363835
37	0x4086b370	4.209404
38	0x42989b12	76.30287
39	0x4037421f	2.8634107
40	0x401a0e84	2.407136
41	0x4100541e	8.020536
42	0x42be00ba	95.00142
43	0x4199c27f	19.219969
44	0x4189ece9	17.240679
45	0x4279180a	62.273476
46	0x3fe62ae9	1.7981845
47	0x41284c73	10.518664
48	0x406545cd	3.5823853
49	0x410252a7	8.145179
50	0x3f9a25db	1.2042803
51	0x406cdd29	3.7009985
52	0x406c3f1e	3.6913524
53	0x4030320b	2.7530544
54	0x408f52e5	4.478869
55	0x42d7cd66	107.90117
56	0x4197ba5e	18.966
57	0x417ac5f7	15.673331
58	0x3f33b1cb	0.70193166
59	0x42e163e2	112.69508
60	0x41c0fb7f	24.1228
61	0x402f3777	2.7377603
62	0x4051c6bc	3.2777548
63	0x41a2e5e4	20.362251
64	0x40865dcc	4.19895
65	0x41a5ed8d	20.740992
66	0x406253cd	3.5363648
67	0x3f338f41	0.70140463
68	0x40e6c6e1	7.211777
69	0x3fc36be8	1.5267305
70	0x40bc22f4	5.8792667
71	0x408acc52	4.3374414
72	0x41d06ea5	26.054026
73	0x4291b852	72.86
74	0x4140f0ae	12.05876
75	0x408d56be	4.4168386
76	0x40032eb2	2.049725
77	0x401f131c	2.4855413
78	0x3ff50ecb	1.914514
79	0x404cc5d1	3.1995738
80	0x3f856395	1.0421015
81	0x4256ecfe	53.731438
82	0x3fd702db	1.6797746
83	0x409ad818	4.8388786
84	0x410f64fc	8.962154
85	0x3f8f59b9	1.1199256
86	0x406315c6	3.548204
87	0x40a4ae17	5.146251
88	0x406e38a3	3.7222068
89	0x40cedcf6	6.464473
90	0x409de229	4.9338574
91	0x40d6d3e5	6.713366
92	0x3fa50d60	1.2894707
93	0x3ff808e2	1.9377711
94	0x409f29b9	4.973843
95	0x405b0d68	3.4226933
96	0x40237459	2.5539763
97	0x3f8c0526	1.0939071
98	0x4013e6ee	2.3109698
99	0x3f98c318	1.1934538
100	0x4046aa5d	3.1041481
101	0x413e96f5	11.911855
102	0x41d9ebb9	27.240099
103	0x40cf9ba3	6.4877486
104	0x40833439	4.100125
105	0x3f84d0f2	1.0376265
106	0x406795ef	3.6185262
107	0x4116d6f3	9.427478
108	0x40c08ba5	6.0170465
109	0x3f62373e	0.8836554
110	0x4022379b	2.534644
111	0x421edaca	39.71366
112	0x3f206aa6	0.6266273
113	0x411aa774	9.665882
114	0x40aa8f43	5.329988
115	0x4197f7da	18.996021
116	0x406371c4	3.5538187
117	0x4103560c	8.208508
118	0x4077db66	3.872766
119	0x40b1a0bc	5.550871
120	0x4054da08	3.3258076
121	0x41102991	9.010148
122	0x422c2f55	43.046223
123	0x3fc1748b	1.5113691
124	0x412eae79	10.917596
125	0x416ace1a	14.675318
126	0x4194f83a	18.621204
127	0x3f6a8f53	0.91624945

fc2.weight f4 [64, 128]
0	0x3e02f00e	0.12786886
1	0x3fc37635	1.5270449
2	0x3f216348	0.63042116
3	0x3e9a7c66	0.30173033
4	0x401c9cdd	2.4470742
5	0xbf0f422d	-0.5596035
6	0x3ee62550	0.44950342
7	0x403e4319	2.9728453
8	0x4005fb1e	2.093452
9	0x409a787d	4.827208
10	0xbf5aaf04	-0.854233
11	0xbfe0919d	-1.7544438
12	0x3ee25f5d	0.4421338
13	0x4081dd0a	4.0582323
14	0x4028d4b3	2.6379821
15	0xbf812d8f	-1.0092028
16	0x3e8cbc7f	0.2748756
17	0x4007ee4d	2.1239197
18	0x407116d8	3.7670193
19	0x3fceb713	1.614962
20	0x3fc9df37	1.5771245
21	0x40326ccf	2.7878911
22	0x3fd1cd07	1.6390694
23	0x40372743	2.8617713
24	0x40766991	3.8501933
25	0xbea4e64e	-0.3220696
26	0xbf0dd9a9	-0.5541025
27	0xbf41f98a	-0.7577139
28	0xbf401477	-0.75031227
29	0x3fc4b787	1.5368508
30	0x3fe2c9c2	1.7717822
31	0xbf759930	-0.9593687
32	0xbf957ff0	-1.1679668
33	0x3fe95e14	1.8231835
34	0x3fef859b	1.8712648
35	0x40016517	2.021795
36	0x3f8207fa	1.0158684
37	0xbeef294c	-0.46711195
38	0x40121370	2.2824364
39	0x3e5bc7b3	0.21462898
40	0x3ea79807	0.32733175
41	0xbf3be891	-0.73401743
42	0x3ffe0e90	1.9848194
43	0x3fe5c2cc	1.7950072
44	0x3e115c19	0.14195289
45	0x4000d172	2.0127835
46	0x3f5affc2	0.85546505
47	0x3fd3ac12	1.6536887
48	0x40622d05	3.5339978
49	0x3f9262d9	1.1436416
50	0xbedd6ecd	-0.43248597
51	0x402c0859	2.6880095
52	0x40789823	3.8842857
53	0x4089d524	4.307268
54	0x40447427	3.0695894
55	0x40323d5b	2.7849948
56	0x3fd6ca61	1.6780511
57	0x3fb0134e	1.3755891
58	0x3ee8610c	0.4538654
59	0x3fe7d790	1.811266
60	0x3fc6098a	1.5471661
61	0x401e07a0	2.4692154
62	0x40697987	3.6480424
63	0x3f718449	0.94342476
64	0x3f09b0a0	0.53785133
65	0x3fe6b6a7	1.8024491
66	0x40a44fd8	5.1347466
67	0xbf4f7388	-0.8103566
68	0xbf683687	-0.907082
69	0x3da31cf2	0.07964505
70	0x3ffcded6	1.9755504
71	0xbe3d3c20	-0.18479967
72	0x3fcdb045	1.6069418
73	0x3fd6ac8e	1.677141
74	0x4047642e	3.1154895
75	0x403e42c9	2.9728262
76	0x3f5b584f	0.85681623
77	0x3e63ad8f	0.22234176
78	0x408f770e	4.483283
79	0x3f87118b	1.0552229
80	0xbef5036e	-0.4785418
81	0x3f090d90	0.5353632
82	0xc01ae58b	-2.4202602
83	0x40489eb0	3.1346855
84	0x3dfe7402	0.124244705
85	0x4099d000	4.8066406
86	0x401759ae	2.3648486
87	0x406fb4f0	3.7454185
88	0x4060f935	3.5152104
89	0xbf7ccfdf	-0.98754686
90	0x401cd57c	2.45053
91	0x3ff9360b	1.9469618
92	0x40899b29	4.3001904
93	0x3ea7c653	0.32768497
94	0x4041d919	3.0288756
95	0x3fce09ad	1.6096703
96	0x401f259a	2.48667
97	0xbf74f18b	-0.95681065
98	0x3f1acb4d	0.6046646
99	0x3f6210ac	0.8830669
100	0x3fddec7e	1.7337797
101	0xbf8aa715	-1.0832239
102	0x3faa3bf0	1.3299541
103	0x401d8574	2.4612703
104	0x4013b0eb	2.3076732
105	0xbf34e226	-0.70657575
106	0x4062932b	3.5402324
107	0x3f924329	1.1426746
108	0x407dfae2	3.9684377
109	0xbf88e218	-1.0693998
110	0x40921471	4.5649953
111	0x3fd44af4	1.6585374
112	0x3fafdcf2	1.3739302
113	0xbf57b32c	-0.8425777
114	0x3efae96e	0.49006218
115	0x3f9da508	1.2315989
116	0x407d523b	3.958144
117	0xbf209db4	-0.62740636
118	0x4096d591	4.71357
119	0x4027189d	2.6108773
120	0x408871e6	4.2639036
121	0x3ce03c4f	0.027372507
122	0x3fae5063	1.3618282
123	0x409117b5	4.534144
124	0xbf632044	-0.8872111
125	0x3fc173a9	1.5113422
126	0x40004ac7	2.004564
127	0x3f17d16c	0.5930393
128	0xbf8e0d9f	-1.1097907
129	0xc012c62f	-2.2933462
130	0xbf9cbe8d	-1.2245651
131	0xbf9a453e	-1.2052381
132	0xbf9c1d2e	-1.2196405
133	0x3f19cede	0.6008128
134	0x3e469935	0.19394381
135	0xbf08c582	-0.53426373
136	0xc04bb8e8	-3.1831608
137	0xbf80559f	-1.002613
138	0x3f080209	0.53128105
139	0xc05e8519	-3.4768736
140	0x3e72e155	0.2371877
141	0xbf97c8cb	-1.1858152
142	0xc084ec7e	-4.1538687
143	0x3efa3c69	0.48874214
144	0x3eacf0b2	0.33777386
145	0xc08b9d09	-4.3629193
146	0xc00088b6	-2.0083442
147	0x3b812ae6	0.0039418815
148	0xbf4db39b	-0.8035218
149	0xc0076cef	-2.1160238
150	0x3f004641	0.501072
151	0xc013ab24	-2.3073206
152	0xbf9abcd7	-1.2088879
153	0xbdab94e2	-0.083780065
154	0xbd77ec01	-0.060527805
155	0x3e8a1a58	0.26973224
156	0x3e291561	0.16512062
157	0xbf7a117d	-0.97682935
158	0xbea249f6	-0.31697053
159	0x3ebb3333	0.365625
160	0x3e219a85	0.15781601
161	0xc0080b4e	-2.12569
162	0xbf264204	-0.6494448
163	0xbf992a13	-1.1965965
164	0x3e649206	0.22321329
165	0xbf9544b7	-1.1661595
166	0xc080dda7	-4.027057
167	0x3f1880d3	0.5957157
168	0x3e64e1be	0.22351739
169	0x3f1acb87	0.6046681
170	0xc07f17c6	-3.985826
171	0xbfe2ad41	-1.7709123
172	0xbfcad422	-1.5845988
173	0xc0618857	-3.5239465
174	0x3e0731b3	0.13202552
175	0xbf391cea	-0.72309744
176	0xbf1a5cc1	-0.6029778
177	0x3e827223	0.25477704
178	0x3ed9ca91	0.42537358
179	0xbf2a84ae	-0.66608703
180	0xbfb9de80	-1.4521027
181	0xbe8423ee	-0.25808662
182	0xbf278105	-0.65431243
183	0xc09b685d	-4.8564897
184	0xc01d0e11	-2.4539835
185	0xbf31469e	-0.6924838
186	0xc0162995	-2.346288
187	0xc00a32da	-2.1593537
188	0xbf3a44c1	-0.7276116
189	0xbf86f4e4	-1.0543485
190	0x3d82b5df	0.063823454
191	0xbf993428	-1.1969042
192	0x3f221cc0	0.6332512
193	0xbfb8b916	-1.4431484
194	0xbfa12ca0	-1.2591743
195	0x3ecc97be	0.3995952
196	0x3f3ea89d	0.74476033
197	0xc08a7489	-4.3267255
198	0xc02c5e84	-2.6932688
199	0xbfafefc2	-1.3745043
200	0xbf96ae47	-1.1771935
201	0xc035a80c	-2.8383818
202	0xbfb92dda	-1.4467118
203	0xbf5031c2	-0.81325924
204	0x3f1f683e	0.62268436
205	0xbf654bdc	-0.8956888
206	0x3e880c07	0.26571676
207	0x3e89d27a	0.26918393
208	0x3e8553dc	0.26040542
209	0xbf978569	-1.1837589
210	0xc0481545	-3.1262982
211	0x3c40f31e	0.011776714
212	0xbfa4d098	-1.2876158
213	0xbe7e76f5	-0.24850066
214	0xc03e0bbb	-2.969466
215	0xbe9bd689	-0.30437115
216	0xbfce1a94	-1.6101861
217	0x3f0ba433	0.54547423
218	0xbfc98fd2	-1.5747015
219	0x3f23c879	0.6397777
220	0xbec61c2b	-0.38693365
221	0xbfc03307	-1.5015572
222	0xbea052a8	-0.31313062
223	0xc01b4498	-2.4260616
224	0x3f02349e	0.5086154
225	0x3f09f604	0.53891015
226	0xbfb7fbb7	-1.4373692
227	0xbf21e634	-0.6324189
228	0xc0436473	-3.053006
229	0x3df6e1dd	0.12054799
230	0xbfe54b9b	-1.7913698
231	0xbf06d7e5	-0.5267318
232	0x3f0bced9	0.546125
233	0xbf8eb7a0	-1.1149788
234	0xbe7bc567	-0.24587022
235	0x3e77ddca	0.242057
236	0xbf45e099	-0.77295834
237	0xc0012c49	-2.018328
238	0xbfcfa92e	-1.6223505
239	0xbfbbf57a	-1.4684289
240	0xbfe93d7e	-1.8221891
241	0xbe83676c	-0.25664842
242	0x3e056d05	0.13029869
243	0xbfcf877c	-1.6213222
244	0xbf98312c	-1.1890006
245	0x3eb037d3	0.3441759
246	0xbfa366fa	-1.2765801
247	0x3e8ccf16	0.27501744
248	0xbeed7790	-0.4638028
249	0xbf8b2357	-1.087016
250	0xc029d060	-2.6533432
251	0xc0607382	-3.50705
252	0x3eada90f	0.33918044
253	0xc018357c	-2.3782644
254	0xbcc9fe06	-0.02465726
255	0xbfe686b4	-1.8009858

fc2.bias f4 [64]
0	0x3e95def1	0.29271653
1	0xbe27f9b7	-0.16403852
2	0x3cb4d4d0	0.022074133
3	0xbda39ade	-0.07988523
4	0x3bb7a0fa	0.0056039067
5	0x3ddc2b29	0.1075042
6	0x3dcab605	0.09897999
7	0x3eb3f8ac	0.3515066
8	0xbe1a049a	-0.15040818
9	0x3c001398	0.0078171715
10	0x3d9bac84	0.07601264
11	0xbd96eb3a	-0.07369085
12	0x3e5eca87	0.21756946
13	0xbddccfc0	-0.10781813
14	0x3e1aea5c	0.15128464
15	0x3d90756e	0.07053648
16	0xb9968330	-0.00028707972
17	0x3db39c48	0.08770043
18	0x3e506ac0	0.20353222
19	0x3d9cbf94	0.07653728
20	0xbe4bb42e	-0.19892952
21	0x3c77562a	0.015096227
22	0xbd3f7d73	-0.046750497
23	0x3dd31f9a	0.10308762
24	0xbd85452d	-0.06507335
25	0x3e16f572	0.14742067
26	0xbe222a51	-0.15836455
27	0x3de86139	0.11346669
28	0x3c9167b9	0.017749654
29	0x3e4bf623	0.19918112
30	0xbde28a79	-0.11061568
31	0xbe028fb1	-0.12750126
32	0x3e0834bf	0.13301371
33	0xbd0377a8	-0.032096535
34	0x3d94e96c	0.07271084
35	0x3b383aef	0.00281113
36	0xbe006070	-0.12536788
37	0x3d207518	0.03917417
38	0xbe790498	-0.24318159
39	0xbc72eccd	-0.0148269655
40	0xbda55454	-0.08072725
41	0xbd97b6e3	-0.0740793
42	0xbdb88d9e	-0.09011386
43	0x3e6075df	0.21919964
44	0xbd3a74f8	-0.045521706
45	0xbe24d2f3	-0.16096096
46	0xbe441056	-0.19146857
47	0xbe2c4b1f	-0.16825531
48	0xbc936cc7	-0.017996205
49	0x3c768f88	0.015048869
50	0x3e3872e8	0.18012583
51	0x3e1de448	0.15419114
52	0x3e2b61ed	0.16736574
53	0x3e30e792	0.17275837
54	0xbd10f0e7	-0.035385992
55	0xbdaf0286	-0.08545403
56	0xbe3009be	-0.17191216
57	0xbda016ef	-0.07816874
58	0xbde0e12b	-0.109804474
59	0xbe434981	-0.19071008
60	0xbe0ed337	-0.1394776
61	0xbd2ce4fe	-0.04221057
62	0x3e98b105	0.29822555
63	0x3d6c1790	0.05763966

bn2.weight f4 [64]
0	0x3fa48320	1.2852516
1	0x3ffa04dd	1.9532734
2	0x3fe80da5	1.8129164
3	0x3fedc3ff	1.8575438
4	0x3f999674	1.199904
5	0x3f99716a	1.1987736
6	0x3ff7b1c9	1.9351131
7	0x3ff04142	1.8769915
8	0x3ff5a7ad	1.9191796
9	0x3fb9d94b	1.4519438
10	0x3fb9be45	1.4511191
11	0x3fd1a8e8	1.6379671
12	0x3fc1815e	1.5117605
13	0x3f93db89	1.1551372
14	0x3fbe144c	1.4849944
15	0x40032697	2.0492303
16	0x3fb344d4	1.400538
17	0x3fc2d0d6	1.5219982
18	0x3fc595e3	1.5436367
19	0x3feb6d44	1.839272
20	0x4012b6ad	2.2923996
21	0x3fca7173	1.5815872
22	0x3faefcd4	1.3670907
23	0x3ffb6ac2	1.9641955
24	0x3ffc6083	1.9716953
25	0x3f93daaa	1.1551106
26	0x3fd04c3d	1.6273266
27	0x3fc36184	1.5264134
28	0x3fbc9f26	1.4736068
29	0x400a44f4	2.1604586
30	0x3ff6394a	1.9236233
31	0x3f8b1e55	1.0868632
32	0x3fd2f1a7	1.6479996
33	0x3fbe7d3b	1.4881967
34	0x3f96219d	1.1729008
35	0x3fee9415	1.8638941
36	0x4001020a	2.0157495
37	0x3f94b9dc	1.161922
38	0x3fbf85fd	1.4962765
39	0x3f981f7f	1.1884612
40	0x3fc55a53	1.541819
41	0x3fa0b26c	1.255445
42	0x3ff0ca11	1.8811666
43	0x3fa6a826	1.3020065
44	0x3fb4772e	1.4098871
45	0x3f95f12b	1.1714224
46	0x3fd7c333	1.6856445
47	0x3fd2ec12	1.6478293
48	0x400a0297	2.156408
49	0x3f9007fb	1.1252435
50	0x3fef4795	1.869372
51	0x3ffe5527	1.9869736
52	0x3fc04a21	1.5022622
53	0x3f989698	1.1920958
54	0x3ff6ab62	1.9271052
55	0x3f92434d	1.1426789
56	0x3f971425	1.1803023
57	0x3fbf92be	1.4966657
58	0x3fd599b8	1.6687536
59	0x3fbf70a0	1.4956245
60	0x3f957b1a	1.1678193
61	0x3fbf1b1c	1.4930148
62	0x3fb5dbaf	1.4207667
63	0x3fbe027b	1.4844507

bn2.bias f4 [64]
0	0xbeab17c7	-0.33416578
1	0xbdca2f98	-0.09872359
2	0xbf032a09	-0.51236016
3	0xbccf46f6	-0.025302391
4	0xbefa93f6	-0.4894101
5	0xbf26fcf3	-0.6522972
6	0xbd6f9ca2	-0.058498986
7	0xbc6bfd0a	-0.014403591
8	0xbbbeadce	-0.005819059
9	0xbf3a8ee3	-0.7287428
10	0xbeae83a6	-0.34084815
11	0xbea37158	-0.31922412
12	0xbe8103df	-0.25198266
13	0xbf2920b4	-0.66065526
14	0xbf36c1e4	-0.71389604
15	0xbd6b173c	-0.057395205
16	0xbfdd4483	-1.7286533
17	0xbec14c68	-0.37753606
18	0xbe3fc4ff	-0.18727492
19	0x3d6352e6	0.05549898
20	0xbe5acdb8	-0.21367538
21	0xbea1b5e4	-0.31584084
22	0xbf3af1c6	-0.73025167
23	0xbde4b451	-0.11167205
24	0xbcfa2ce6	-0.030538987
25	0xbeaa2c31	-0.3323684
26	0xbec3239e	-0.3811311
27	0xbe58d88d	-0.21176358
28	0xbecd6e31	-0.40123132
29	0xbd878dd0	-0.066188455
30	0x3cc5e068	0.024154857
31	0xbea56c1b	-0.3230904
32	0xbeaa03ab	-0.33205923
33	0xbed0d20b	-0.4078525
34	0xbeb8e750	-0.36113977
35	0xbe302cb2	-0.1720455
36	0xbce71da7	-0.028212382
37	0xbf252d5f	-0.64522356
38	0xbe5bc8cd	-0.21463318
39	0xbf37ac55	-0.7174733
40	0xbef57fed	-0.47949162
41	0xbe1c5b7b	-0.15269272
42	0xbdd6eb90	-0.10494149
43	0xbe9f3b30	-0.31099844
44	0xbf42441f	-0.75885195
45	0xbf3d0eb0	-0.73850536
46	0xbe823753	-0.25432834
47	0xbecd98d0	-0.4015565
48	0xbd809918	-0.062792
49	0xbf2e6233	-0.6811859
50	0xbb31a026	-0.0027103513
51	0xbcb505e6	-0.02209754
52	0xbeb70093	-0.35742626
53	0xbf1b3dab	-0.6064097
54	0xbe56b591	-0.209677
55	0xbf2f33c9	-0.6843839
56	0xbf1f98c8	-0.623425
57	0xbeb76f3e	-0.3582706
58	0xbd3b8630	-0.045782268
59	0xbe70d1d2	-0.2351754
60	0xbf3e282e	-0.7428006
61	0xbeee9914	-0.46601164
62	0xbec76e8c	-0.38951528
63	0xbec3ebae	-0.38265747

bn2.running_mean f4 [64]
0	0x40a7250e	5.2232733
1	0xc018b576	-2.3860755
2	0xc08fed57	-4.497722
3	0xbfd9af26	-1.7006576
4	0x41364089	11.390756
5	0xbe6da5b0	-0.23207736
6	0xc0266cdc	-2.6003942
7	0xbf761b00	-0.9613495
8	0xbfe02e02	-1.751404
9	0xc1156605	-9.337407
10	0xc035d16a	-2.8409066
11	0xc00a36d3	-2.1595962
12	0xbfb3ec91	-1.4056569
13	0xbf0248c4	-0.5089228
14	0xc11f1dcf	-9.9447775
15	0xbfbd3dc4	-1.4784474
16	0x422891ce	42.142387
17	0xc0292ff3	-2.6435516
18	0xbf627142	-0.8845407
19	0xbfae7ce4	-1.3631864
20	0xc0541210	-3.3136024
21	0xc0356fd5	-2.8349507
22	0xc0e164a0	-7.0435333
23	0xc0067342	-2.1007848
24	0xbfbd12fd	-1.477142
25	0x419e7559	19.807299
26	0xc0294537	-2.6448495
27	0xbff5de6d	-1.9208504
28	0xc05670f7	-3.3506448
29	0xbfdc8e18	-1.7230864
30	0xbf48017d	-0.7812727
31	0x41b62e7a	22.772694
32	0xc027e292	-2.6232038
33	0xc05bd06a	-3.4345956
34	0x40d85774	6.7606754
35	0xc034a980	-2.8228455
36	0xbffb299a	-1.9622071
37	0xbfb7a45f	-1.4347037
38	0xbfe8b9bd	-1.8181683
39	0xbf7c1e80	-0.9848404
40	0xc08774e2	-4.233018
41	0x414574f6	12.341055
42	0xbfe92194	-1.8213372
43	0x4115aec3	9.355166
44	0xc120af61	-10.042817
45	0x40230e59	2.5477507
46	0xbffdf5ce	-1.9840639
47	0xc03d1fb0	-2.955059
48	0xbfbf3b90	-1.4940052
49	0xbea96733	-0.33086547
50	0xbfdff902	-1.7497866
51	0xbfaaea02	-1.3352664
52	0xc00fdc60	-2.2478256
53	0xbef55020	-0.47912693
54	0xc01d664a	-2.4593682
55	0x41b4297f	22.520262
56	0xbf564bf8	-0.8370967
57	0xc0593c92	-3.394322
58	0xbfb53e55	-1.4159647
59	0xc03d760a	-2.9603295
60	0xbf802a9c	-1.0013003
61	0xc061c31f	-3.5275342
62	0xc034e1f4	-2.826291
63	0xc05e6c69	-3.4753668

bn2.running_var f4 [64]
0	0x43ce6527	412.79025
1	0x43127ac8	146.47961
2	0x430f527c	143.3222
3	0x43129dbb	146.61613
4	0x432fc24d	175.75899
5	0x41213dda	10.0776005
6	0x4334979d	180.59224
7	0x432e7843	174.46977
8	0x4309dc07	137.85948
9	0x4332c5ae	178.77219
10	0x4289fbf4	68.992096
11	0x42830389	65.506905
12	0x427296ed	60.64739
13	0x410e2311	8.883561
14	0x43835d4e	262.72894
15	0x432542b9	165.26064
16	0x4426b8f8	666.89014
17	0x426f6e80	59.85791
18	0x427899ca	62.150185
19	0x431d6f10	157.43384
20	0x430f9e59	143.61855
21	0x42899bc1	68.80421
22	0x4297a68a	75.82527
23	0x4314c71f	148.77782
24	0x4314f4ee	148.95676
25	0x4352428f	210.26
26	0x4270aae0	60.16687
27	0x4273aab2	60.916695
28	0x428d3ba3	70.61648
29	0x43010a0f	129.03929
30	0x430ce6da	140.90176
31	0x43920a39	292.07986
32	0x427b78a5	62.867817
33	0x428de380	70.944336
34	0x439f0f88	318.12134
35	0x4336b1c3	182.69438
36	0x430435dc	132.21039
37	0x4188b540	17.088501
38	0x426ea2a1	59.658817
39	0x413f8390	11.96962
40	0x4291a544	72.822784
41	0x438afa4e	277.9555
42	0x432eb6b0	174.71362
43	0x43980f1f	304.11813
44	0x43661df9	230.11708
45	0x43726939	242.41103
46	0x42774a8e	61.822807
47	0x42865b4d	67.17832
48	0x430ac606	138.77353
49	0x4105a639	8.353082
50	0x431812c1	152.07326
51	0x434d4b02	205.293
52	0x427e4000	63.5625
53	0x413db4d7	11.85665
54	0x431908e2	153.0347
55	0x4370a104	240.62897
56	0x415c6bba	13.7763
57	0x428b1b5b	69.55343
58	0x427a6151	62.595036
59	0x4271d80a	60.460976
60	0x413b281f	11.697295
61	0x42905625	72.16825
62	0x4296a888	75.32916
63	0x428bb57d	69.85447

fc3.weight f4 [1, 64]
0	0xbf13c2cd	-0.5771912
1	0x3f04541c	0.5169084
2	0x3f1d70ea	0.6150042
3	0x3ee1b33b	0.44082054
4	0xbf2691b8	-0.650661
5	0x3e92940b	0.28628573
6	0x3f1602d1	0.5859805
7	0x3efeeb59	0.4978893
8	0x3f19bf00	0.6005707
9	0xbfc3214f	-1.524454
10	0x3ebbc037	0.36670086
11	0x3e955d72	0.29172856
12	0x3e93c6ce	0.28862613
13	0x3e87e995	0.26545396
14	0xbfb30e1e	-1.3988683
15	0x3ebc7404	0.36807263
16	0xc0002803	-2.0024421
17	0x3eb62ca1	0.35580924
18	0x3e9ffc0e	0.3124699
19	0x3f05ad92	0.5221797
20	0x3ede1847	0.43377897
21	0x3e8d516e	0.27601188
22	0xbf98a91f	-1.1926612
23	0x3f096c1b	0.5368058
24	0x3efa34c7	0.4886839
25	0xbed4d2aa	-0.41566974
26	0x3eae0481	0.3398781
27	0x3e948ac6	0.29012126
28	0x3eb0f13c	0.34559047
29	0x3edc6a4b	0.43049845
30	0x3f06b39f	0.5261783
31	0xbeb9bf8f	-0.3627896
32	0x3e958d55	0.2920939
33	0x3ec8712c	0.39148843
34	0xbf034dc6	-0.5129055
35	0x3f1e3666	0.61801755
36	0x3f04fc63	0.5194761
37	0x3ead6d34	0.33872378
38	0x3eab0230	0.33400106
39	0x3e95c87a	0.29254514
40	0x3eb79388	0.35854745
41	0xbed86129	-0.42261627
42	0x3f0eda85	0.55802184
43	0xbf086807	-0.53283733
44	0xbfab8bca	-1.3402035
45	0xbf87783e	-1.058357
46	0x3e9e5a66	0.30928344
47	0x3ea6e754	0.32598364
48	0x3eff25f1	0.49833634
49	0x3e94be91	0.2905164
50	0x3f1bcfd0	0.6086397
51	0x3f0fdf51	0.5620013
52	0x3ea0025f	0.3125181
53	0x3e863906	0.2621538
54	0x3f047543	0.5174143
55	0xbf246340	-0.64213943
56	0x3e89455d	0.26810732
57	0x3e85def9	0.26146677
58	0x3e94031d	0.28908625
59	0x3e90aaa4	0.28255188
60	0x3e9dba07	0.3080599
61	0x3e9a54c8	0.30142808
62	0x3e964483	0.29349145
63	0x3eb778be	0.35834306
