fraud_detection_nn_es.pth (torch, 786366 bytes, 13 tensors)

fc1.weight f4 [128, 1453]
0	0x3dba2a17	0.09090059
1	0xbf8a6146	-1.0810935
2	0x3e1640f7	0.1467322
3	0x3e746922	0.2386823
4	0x3fcb67fd	1.589111
5	0xbf3bd0c2	-0.73365414
6	0x3f07bcc0	0.53022385
7	0x3f68fbbd	0.9100912
8	0xbe1ad1a2	-0.15119031
9	0x4003073d	2.0473168
10	0xbcac2d0c	-0.021017574
11	0x3fdefa8d	1.7420212
12	0x3ff1252c	1.8839469
13	0x3ecfa8de	0.40558523
14	0x3e19a3e6	0.15003929
15	0x3fb34590	1.4005604
16	0x3ea2679d	0.31719676
17	0xbee2c602	-0.44291693
18	0x3ea2fbb7	0.31832668
19	0x3f892899	1.0715514
20	0xbed75463	-0.4205657
21	0x3e39e6e9	0.18154491
22	0x3fa6a20c	1.3018203
23	0x3dc43911	0.09581197
24	0x3ef6b1ea	0.48182613
25	0x3f216d68	0.63057566
26	0x3d72546b	0.05916254
27	0x3e5e4861	0.21707298
28	0x3f8d3240	1.103096
29	0x3fcd81be	1.6055219
30	0xbe0b2221	-0.13587238
31	0x3d7876af	0.06066006
32	0x3fe29b01	1.7703553
33	0x3be29345	0.0069145286
34	0x3e00de96	0.1258491
35	0x3ee2dfe1	0.4431143
36	0xbec6593e	-0.3873996
37	0xbe83f83a	-0.2577532
38	0xbd3b7123	-0.045762192
39	0xbf33f14d	-0.7029007
40	0x3edc3fd8	0.4301746
41	0x3f146c37	0.5797762
42	0x3f1a1e26	0.6020225
43	0x3e44cd1d	0.1921887
44	0xbd868e13	-0.06570067
45	0x3dbb5a99	0.091481395
46	0x3f18dff6	0.5971674
47	0x3ee4faa5	0.44722477
48	0x3e6eca0b	0.23319261
49	0x3e8332d1	0.25624707
50	0xbf1175d5	-0.5682042
51	0x3e617cb7	0.22020231
52	0x3efd0249	0.49415806
53	0xbe3a13e5	-0.18171652
54	0x3e9eee74	0.310413
55	0x3d4113ea	0.047138132
56	0xbf20181b	-0.6253678
57	0xbe1222bb	-0.14271061
58	0x3f9b4950	1.2131748
59	0x3f5353bc	0.82549644
60	0x3ee771b0	0.45203924
61	0x3f45cdbb	0.77267045
62	0x3e34cf5e	0.1765723
63	0xbe0a716f	-0.13519834
64	0xbcdcf216	-0.026970904
65	0xbeb80732	-0.3594299
66	0x3e441e98	0.19152296
67	0x3ee996b9	0.45622805
68	0x3ec2dc3d	0.38058653
69	0x3e64397f	0.22287558
70	0xbe5c0faf	-0.21490358
71	0xbe0b6d14	-0.13615829
72	0xbe8e806e	-0.2783236
73	0x3f663224	0.8992026
74	0xbe9d313e	-0.3070163
75	0x3faf2b83	1.3685154
76	0x3df7ab8b	0.12093266
77	0x3ebbdf21	0.3669367
78	0x3d2ed990	0.042687953
79	0x3e3610b7	0.17779814
80	0x3eae04b0	0.3398795
81	0xbedaa87e	-0.42706674
82	0x3da60550	0.08106482
83	0x3f23b6ac	0.6395061
84	0xbdf2de21	-0.11858774
85	0xbe52685e	-0.20547625
86	0x3e5e0b95	0.21684106
87	0xbee586d0	-0.44829416
88	0x3d83807a	0.06420989
89	0xbe933e90	-0.2875867
90	0xbd9136be	-0.07090519
91	0x3e613c7e	0.21995732
92	0x3e4be407	0.19911204
93	0x3b855067	0.0040684226
94	0xbd5252a4	-0.051348343
95	0xbd82eff1	-0.063934214
96	0x3f29b51e	0.6629199
97	0x3d937299	0.07199592
98	0x3f08dbd1	0.53460413
99	0xbd57488c	-0.05255942
100	0x3d0d5791	0.034507338
101	0x3ed6b0ad	0.41931668
102	0xbeb4cbe4	-0.35311806
103	0x3dee06bb	0.116223775
104	0x3edd27ae	0.43194336
105	0x3d824037	0.06359904
106	0x3fd72c63	1.6810421
107	0xbcb62ac7	-0.022237195
108	0x3e9ddf90	0.30834627
109	0x3e7767ba	0.24160662
110	0x3ebdb6fa	0.37053663
111	0xbf1a7c35	-0.60345775
112	0x3eec17b4	0.46111834
113	0x3d1fa59f	0.038976308
114	0xbda64cc5	-0.081201114
115	0x3ff2fa5f	1.8982657
116	0x3e8785bd	0.26469222
117	0x3ea1c4d7	0.3159549
118	0x3e9d25f9	0.30693033
119	0x3cea4f18	0.028602168
120	0xbf08ac52	-0.5338794
121	0x3ded00f4	0.115724474
122	0x3ee3de07	0.4450533
123	0x3f66bbd3	0.90130347
124	0x3f0a917f	0.5412826
125	0xbf0aecf7	-0.5426783
126	0x3f969959	1.1765548
127	0x3de05407	0.10953527
128	0x3fc7c230	1.5606136
129	0xbdc8c05e	-0.09802316
130	0x3f01b921	0.5067311
131	0x3d3a20e3	0.04544152
132	0xbe08ee9f	-0.13372277
133	0xbd90c588	-0.07068926
134	0x3ea75f62	0.3268996
135	0x3f2913eb	0.6604602
136	0xbeeb7088	-0.45984292
137	0x3f570e78	0.8400645
138	0x3ee42c61	0.44565108
139	0xbf2f9660	-0.6858883
140	0xbc9c1c95	-0.019056598
141	0xbe7da5e3	-0.24770312
142	0xbeb11a8f	-0.34590575
143	0x3dda8918	0.1067068
144	0x3f418f93	0.756097
145	0x3dfaf68d	0.12254057
146	0xbecb6649	-0.39726475
147	0xbf050f6b	-0.5197665
148	0x3e190f5c	0.14947265
149	0xbeb2c314	-0.34914458
150	0xbdcda7b6	-0.10041754
151	0x3ec907d7	0.39263794
152	0x3d428e1e	0.047498815
153	0xbe86fa56	-0.26362866
154	0x3f1e8e12	0.6193553
155	0x3eb57723	0.35442457
156	0x3c34d53a	0.011037165
157	0x3f5c7ae7	0.86125034
158	0xbea7660a	-0.32695037
159	0xbe8246f0	-0.25444746
160	0x3ed9a2e0	0.42507076
161	0x3eb36916	0.35041112
162	0x3e24c606	0.16091165
163	0xbded9029	-0.11599762
164	0x3e692493	0.22767858
165	0x3d0cdc2b	0.034389656
166	0xbe8ada5c	-0.2711972
167	0xbe90be2c	-0.2827009
168	0xbd5f21fb	-0.054475766
169	0xbecbcfc2	-0.39806944
170	0x3fd6b0d6	1.6772716
171	0x3fd6092c	1.6721549
172	0xbf8704fc	-1.0548396
173	0xbf13640f	-0.5757455
174	0xbea0cdcc	-0.3140701
175	0x3b9bf644	0.0047595818
176	0x3e7a7dee	0.24462101
177	0xbdc60633	-0.09669151
178	0x3ea6e07f	0.32593152
179	0x3e90e681	0.2830086
180	0x3e7edc6a	0.24888769
181	0x3e979188	0.2960322
182	0x3f12f441	0.5740395
183	0x3f02662c	0.5093715
184	0xbf11661e	-0.56796443
185	0x3fb9ee16	1.4525783
186	0xbf0abfd0	-0.5419893
187	0x3f4bc0a5	0.7959083
188	0xbe52b032	-0.20575026
189	0xbe35692a	-0.17715898
190	0x3edae588	0.42753243
191	0x3ed04f8b	0.40685686
192	0x3e99a967	0.30012056
193	0xbfbfbdc0	-1.4979782
194	0x3d2fece5	0.04295053
195	0xbed36172	-0.41285282
196	0xbe53802b	-0.20654361
197	0x3e9a54d4	0.30142844
198	0xbdcd501c	-0.10025045
199	0x3e5bba15	0.21457703
200	0x3fa46572	1.2843459
201	0x3d96b773	0.07359209
202	0xbe96f83d	-0.29486266
203	0x3f1995aa	0.59993994
204	0xbecbe17d	-0.3982047
205	0x3d9a323c	0.07529113
206	0x3e1034db	0.14082663
207	0x3fa3b8dd	1.2790791
208	0x3de8e60b	0.11372002
209	0x3d716cf3	0.058941793
210	0xbe2a3911	-0.16623332
211	0xbd1fbc8c	-0.03899817
212	0xbe4f901b	-0.20269816
213	0x3eaadae7	0.33370134
214	0xbe828e75	-0.2549931
215	0xbce48ff9	-0.027900683
216	0x3f3a14b3	0.72687835
217	0x3e8a554d	0.27018204
218	0x3ec7ec8f	0.39047667
219	0x3ea0bc42	0.3139363
220	0xbf2d3ee8	-0.6767411
221	0xbe97621c	-0.2956704
222	0x3faccc7f	1.3499907
223	0x3f25b4fc	0.64729285
224	0x3d471901	0.04860783
225	0x3e90af36	0.28258675
226	0xbd81f2ed	-0.063451625
227	0xbefa2b52	-0.48861176
228	0x3e88a289	0.26686504
229	0xbdbdec6b	-0.09273609
230	0xbdb430ca	-0.08798368
231	0xbeadff18	-0.33983684
232	0x3e7aa5fe	0.24477383
233	0xbede6141	-0.43433574
234	0xc005b43f	-2.0891263
235	0x3f72ecea	0.9489275
236	0x3e99b399	0.30019835
237	0x3ea59df2	0.32347065
238	0xbedd3b7a	-0.4320944
239	0xbe8cd921	-0.27509406
240	0x3bb98236	0.0056612743
241	0x3ea90690	0.3301282
242	0xbf1b18cc	-0.6058471
243	0x3eb5c2ad	0.35500088
244	0xbf6d156d	-0.9261082
245	0xbf51b935	-0.8192323
246	0x3ea1c1c9	0.3159316
247	0x3f5d3788	0.8641286
248	0xbf9e4c87	-1.2367104
249	0x3ebfecbc	0.37485301
250	0x3e40c500	0.1882515
251	0x3e083968	0.13303149
252	0xbe017262	-0.1264129
253	0xbeb1b287	-0.34706518
254	0x3d874317	0.06604593
255	0x3e9809ad	0.29694882

fc1.bias f4 [128]
0	0x3f205cd7	0.6264166
1	0xbe2ddf3b	-0.16979687
2	0xbea4541e	-0.32095426
3	0xbdedfb26	-0.116201684
4	0x3d85ecca	0.065393046
5	0x3d7d9f1c	0.061919317
6	0x3e40ba46	0.18821058
7	0xbdbba6d3	-0.091626786
8	0x3de03c23	0.1094897
9	0xbea5ddcb	-0.32395777
10	0x3df2f358	0.118628204
11	0x3e9b66a3	0.30351743
12	0x3df6a996	0.12044065
13	0x3d3d227c	0.046175465
14	0xbc4b1112	-0.012394207
15	0xbe877519	-0.26456526
16	0x3edb7c1d	0.42868128
17	0x3e48bdc6	0.19603643
18	0x3dc2e072	0.09515466
19	0x3c499264	0.012302969
20	0xbe0700ee	-0.13183948
21	0x3e0428a6	0.12906131
22	0x3d95b579	0.07310004
23	0xbef79694	-0.4835707
24	0xbe120b65	-0.14262159
25	0x3d802843	0.06257679
26	0x3dc1aab3	0.094563864
27	0x3d76c0e9	0.060242567
28	0xbdf0ad68	-0.117518246
29	0x3e177259	0.14789714
30	0xbd0d000e	-0.03442388
31	0x3e1b7be0	0.15183973
32	0x3e580117	0.21094166
33	0xbe3fce10	-0.1873095
34	0x3c918761	0.017764749
35	0xbeb27ffa	-0.34863263
36	0x3e0a0c78	0.13481319
37	0x3eb4c660	0.35307598
38	0xbdfc2454	-0.123116165
39	0x3c1b4159	0.009476029
40	0x3dba3dc8	0.09093815
41	0xbddf83fd	-0.10913847
42	0xbd89000e	-0.066894636
43	0x3d51fab9	0.0512645
44	0xbc93d922	-0.018047873
45	0xbdf8772b	-0.121321045
46	0xbe42a549	-0.19008364
47	0xbf04de9b	-0.5190217
48	0x3e35c0f1	0.17749383
49	0xbe2e6837	-0.17031942
50	0x3f0109bb	0.5040547
51	0x3dd28ae4	0.102803975
52	0xbe20f36c	-0.15717858
53	0xbd7c4aba	-0.061594702
54	0x3d8f953c	0.07010886
55	0xbe80f34f	-0.2518563
56	0x3e06e3cd	0.13172837
57	0x3d1ea68c	0.03873305
58	0x3e86dc19	0.26339796
59	0x3e0ded50	0.13860059
60	0x3e880dd5	0.26573053
61	0x3e058867	0.13040315
62	0xbee813e2	-0.4532767
63	0x3bac48ce	0.0052577024
64	0x3e1a8860	0.15091085
65	0x3ce98dc5	0.028509984
66	0xbd8485ad	-0.06470809
67	0x3e0c3743	0.13692956
68	0xbc64761c	-0.013944175
69	0xbc048475	-0.008088221
70	0xbdccb75f	-0.09995913
71	0xbe461ccb	-0.19346921
72	0x3e777d97	0.24169002
73	0x3e10c5d8	0.14137971
74	0xbed37eff	-0.41307828
75	0xbf05346b	-0.5203311
76	0xbd87a5de	-0.066234335
77	0x3e54cf34	0.20782167
78	0x3e120097	0.14258038
79	0xbed21db0	-0.41038275
80	0xbe9bfe15	-0.30467287
81	0xbe7e6466	-0.24842986
82	0xbe580cd7	-0.21098648
83	0xbe22c5b4	-0.1589573
84	0x3ea8cb8d	0.32967797
85	0x3e2d562d	0.16927405
86	0x3e00bc00	0.12571716
87	0xbd60301a	-0.054733373
88	0xbd4165cc	-0.04721622
89	0xbe2f23a5	-0.17103441
90	0x3d22911c	0.03968917
91	0xbcb991a6	-0.022652458
92	0x3e162215	0.14661439
93	0xbdb128d9	-0.08650369
94	0x3e9f8f1b	0.31163868
95	0xbb01eeee	-0.001982625
96	0xbd9a4b77	-0.07533925
97	0x3e664510	0.22487283
98	0x3cfdd965	0.03098745
99	0xbede0b25	-0.43367878
100	0xbd07ed52	-0.03318531
101	0x3e495111	0.1965983
102	0xbe12fee9	-0.14355053
103	0x3f2b8494	0.66999173
104	0x3e371cee	0.1788213
105	0xbdb0b585	-0.08628372
106	0xbd5a73a7	-0.05333295
107	0xbe027a39	-0.12741937
108	0x3e9b32c1	0.3031216
109	0x3e0ff7db	0.14059393
110	0xbe41f54a	-0.18941227
111	0x3dbd93c1	0.092566974
112	0xbecf444a	-0.40481788
113	0x3dffb3c7	0.12485462
114	0x3defe2a1	0.11713148
115	0xbda9bdb7	-0.08288138
116	0xbe6a309e	-0.22870108
117	0x3c1f3110	0.009716287
118	0x3f4bcdf2	0.7961112
119	0xbe342a1e	-0.17594191
120	0x3e206631	0.15663983
121	0x3f08899b	0.5333497
122	0xbe8051f2	-0.2506252
123	0x3ea5823b	0.3232592
124	0x3e20f91e	0.1572003
125	0x3ba7fa57	0.0051262784
126	0xbf12e3a5	-0.5737861
127	0x3d5c30ea	0.053757586

bn1.weight f4 [128]
0	0x3f0f8489	0.5606161
1	0x3f857fc7	1.042962
2	0x3f1e29f0	0.6178274
3	0x3fa0c35a	1.2559617
4	0x3faeb4f0	1.3648968
5	0x3f4d8687	0.802834
6	0x3f25cd5f	0.64766496
7	0x3f7c11bf	0.9846458
8	0x3f37d5eb	0.7181079
9	0x3f2943f3	0.6611931
10	0x3f70746e	0.9392766
11	0x3f989f76	1.1923664
12	0x3fa25421	1.2681924
13	0x3fabeb73	1.3431228
14	0x3f46b73a	0.7762333
15	0x3f4ebbd3	0.80755347
16	0x3f57bcf8	0.8427272
17	0x3fb2d4c8	1.3971186
18	0x3f6ba711	0.920518
19	0x3f55e7ad	0.83556634
20	0x3f43e54e	0.76521766
21	0x3fa628d0	1.2981205
22	0x3f7b759d	0.9822634
23	0x3f540c43	0.8283121
24	0x3f32bc0c	0.69818187
25	0x3f8568c6	1.0422599
26	0x3f48dd57	0.7846274
27	0x3f7722ec	0.9653766
28	0x3f69312b	0.9109065
29	0x3f82db39	1.0223151
30	0x3faa832d	1.3321282
31	0x3f1f20f0	0.62159634
32	0x3f95fe08	1.1718149
33	0x3f897b76	1.0740802
34	0x3f400bde	0.7501811
35	0x3fa0c861	1.2561151
36	0x3fa9540e	1.3228776
37	0x3f90469d	1.127155
38	0x3f7eb9da	0.99502337
39	0x3f119c3b	0.56879014
40	0x3f812b3d	1.009132
41	0x3f8f8bf3	1.1214584
42	0x3f807082	1.0034335
43	0x3f43b210	0.76443577
44	0x3f202b17	0.6256575
45	0x3f38bc3a	0.7216221
46	0x3f894d26	1.0726669
47	0x3f10b977	0.56532997
48	0x3f88cbf1	1.0687238
49	0x3f56a913	0.83851737
50	0x3f1f691d	0.62269765
51	0x3f88a712	1.0675986
52	0x3f32dae8	0.69865274
53	0x3f7a4bcf	0.97771925
54	0x3f45752e	0.77131927
55	0x3f6b82ec	0.91996646
56	0x3fb271bb	1.3940958
57	0x3f78c318	0.9717269
58	0x3f338bb6	0.70135057
59	0x3f9e2a57	1.2356671
60	0x3f34c765	0.7061675
61	0x3f41bdf0	0.75680447
62	0x3f1e39b7	0.61806816
63	0x3f849582	1.0358126
64	0x3fa97555	1.3238932
65	0x3f88f1bd	1.0698773
66	0x3f6ace0d	0.9172066
67	0x3fa56d06	1.2923896
68	0x3f55a46d	0.8345402
69	0x3faafb44	1.335793
70	0x3f75a3b0	0.9595289
71	0x3f55257b	0.83260316
72	0x3f76e35c	0.9644067
73	0x3f37cc8f	0.71796507
74	0x3f3ba15b	0.73293084
75	0x3f2ca2b4	0.67435765
76	0x3f0b514d	0.5442093
77	0x3f89106f	1.070814
78	0x3f89ea22	1.0774577
79	0x3f45317b	0.77028626
80	0x3f4b0053	0.7929737
81	0x3f5af8c1	0.8553582
82	0x3f2556d9	0.64585644
83	0x3f64d366	0.8938507
84	0x3f8ffa2b	1.124822
85	0x3f58c1fe	0.8467101
86	0x3fa72af8	1.3059988
87	0x3f573ad5	0.84074146
88	0x3f6f2208	0.934113
89	0x3f9b7b03	1.2146915
90	0x3fb35403	1.4010013
91	0x3f395134	0.7238953
92	0x3fa74a1c	1.3069491
93	0x3f8a3e39	1.0800239
94	0x3f982a69	1.1887943
95	0x3f80173a	1.0007088
96	0x3f82e06f	1.0224742
97	0x3f3c2c61	0.73505217
98	0x3f36cab7	0.7140307
99	0x3f06d442	0.5266763
100	0x3f15ef2d	0.5856808
101	0x3fa4017a	1.2812951
102	0x3f64bf20	0.89354134
103	0x3f0e0f59	0.5549217
104	0x3f4448e8	0.76673746
105	0x3f85d694	1.0456109
106	0x3f453275	0.77030116
107	0x3f5c45b4	0.8604386
108	0x3f4d73b2	0.8025466
109	0x3fa23cc4	1.2674794
110	0x3f4d1a1c	0.80117965
111	0x3f7808a8	0.9688821
112	0x3f2bfc5a	0.6718193
113	0x3fa02d5e	1.2513845
114	0x3f6f35c3	0.9344141
115	0x3f578eb6	0.84202135
116	0x3f6573f4	0.89630055
117	0x3f379eaf	0.71726507
118	0x3f9826bb	1.188682
119	0x3f947555	1.1598307
120	0x3f6ec582	0.93270123
121	0x3f8a2503	1.0792545
122	0x3fac20d6	1.3447521
123	0x3faea38e	1.3643663
124	0x3f3369b0	0.7008314
125	0x3f41e263	0.75736064
126	0x3f74a065	0.9555724
127	0x3fabaf06	1.3412788

bn1.bias f4 [128]
0	0xbf8ea963	-1.1145443
1	0xbdb409f0	-0.08790958
2	0xbf967080	-1.1753082
3	0xbf49e569	-0.7886568
4	0xbf7a625b	-0.9780633
5	0xbf8352c4	-1.0259633
6	0xbf87cc94	-1.0609307
7	0xbe860c39	-0.261812
8	0xbf280602	-0.6563417
9	0xbf9491f9	-1.1607047
10	0xbd9b5986	-0.075854346
11	0xbf154fb6	-0.58324754
12	0xbf3823e7	-0.7192978
13	0xbf4ac766	-0.7921051
14	0xbed1d06e	-0.40979332
15	0xbf7195e0	-0.94369316
16	0xbf4d38cf	-0.8016481
17	0xbf6b5d77	-0.9193949
18	0xbd76ed90	-0.06028515
19	0xbf74bc00	-0.95599365
20	0xbf5d4fde	-0.8644999
21	0xbf264fe6	-0.64965665
22	0xbfca4ea3	-1.5805248
23	0xbf44e4e7	-0.7691178
24	0xbf93ea59	-1.1555892
25	0xbed16827	-0.40899774
26	0xbf5f7997	-0.87294906
27	0xbef3ab98	-0.47591853
28	0xbe4ef219	-0.2020954
29	0xbd490fab	-0.049087208
30	0xbf61787c	-0.8807447
31	0xbf8545b0	-1.0411892
32	0xbf5dfc6d	-0.86713296
33	0xbdec2954	-0.1153132
34	0x3bd99452	0.0066399956
35	0xbf38e71e	-0.72227657
36	0xbf5fc05c	-0.8740289
37	0xbf5c0713	-0.85948294
38	0xbf21898b	-0.631005
39	0xbf6cdbcc	-0.92522883
40	0x3d9831e4	0.07431391
41	0xbebb1c67	-0.36545107
42	0xbe7f55d4	-0.24935085
43	0xbf852a7c	-1.040359
44	0xbd370cd3	-0.044689965
45	0xbf62c117	-0.8857588
46	0xbd7a64a1	-0.061131123
47	0xbf869348	-1.0513697
48	0xbe51fdfd	-0.20507045
49	0xbe04bcc4	-0.12962633
50	0xbf841e16	-1.0321681
51	0xbd7ee945	-0.062234182
52	0xbf5f6002	-0.8725587
53	0xbf6041fd	-0.8760069
54	0xbf8c533e	-1.0962903
55	0xbf5b2200	-0.85598755
56	0xbf289b19	-0.6586166
57	0xbddd47c2	-0.10804702
58	0xbf1e24cf	-0.61774915
59	0xbf3a1a89	-0.7269674
60	0xbf7ffb5a	-0.9999291
61	0xbdb23d31	-0.087030776
62	0xbf8c9384	-1.0982518
63	0xbeeb4411	-0.45950368
64	0xbf62861e	-0.88485897
65	0x3dd58ad6	0.104268715
66	0x3e30560d	0.17220326
67	0xbf4cc5ea	-0.7998949
68	0xbf46ea06	-0.7770084
69	0xbf30839a	-0.6895081
70	0xbe1cac7c	-0.15300173
71	0xbf6faacb	-0.93619984
72	0xbf14fe66	-0.5820068
73	0xbf6edb20	-0.9330311
74	0x3c9dff3d	0.019286746
75	0xbf479a6c	-0.77970004
76	0xbf9849f4	-1.1897569
77	0xbf066078	-0.5249095
78	0xbe9a0503	-0.3008195
79	0xbf3f647f	-0.7476272
80	0xbf5876d8	-0.8455634
81	0xbef24d17	-0.4732444
82	0xbf4d0fe5	-0.8010238
83	0xbdd03064	-0.1016548
84	0xbf638e3c	-0.8888891
85	0xbf92e12e	-1.1474969
86	0xbf5ee5b2	-0.8706924
87	0xbee57310	-0.44814348
88	0x3d6863ae	0.056735687
89	0xbdfe49ef	-0.124164455
90	0xbf576ca3	-0.8415014
91	0xbdfd9576	-0.12382023
92	0xbf3933bb	-0.7234456
93	0xbcb313fb	-0.021860113
94	0xbf3b304e	-0.7312058
95	0xbe9a4565	-0.3013107
96	0xbf6849ed	-0.907378
97	0xbf51e8c2	-0.81995785
98	0xbf805a9e	-1.0027654
99	0xbf88d336	-1.0689456
100	0xbf80c896	-1.0061214
101	0xbf414135	-0.75490123
102	0xbf5d4ab8	-0.86442137
103	0xbf9083af	-1.1290187
104	0xbf47cfc5	-0.78051406
105	0xbeea4a07	-0.45759603
106	0xbe85602a	-0.2604993
107	0x3d8c20bc	0.06842181
108	0xbf37f6e6	-0.7186111
109	0xbf2039ff	-0.62588495
110	0xbf0ed5fa	-0.5579525
111	0xbfc5af23	-1.5444072
112	0xbf8a8e0b	-1.0824598
113	0xbf52caa1	-0.8234044
114	0xbee95868	-0.4557526
115	0xbf97f59f	-1.1871833
116	0xbf6d2a3c	-0.9264257
117	0xbf7aa19d	-0.9790285
118	0xbf1e53e4	-0.61846757
119	0xbf714c1b	-0.9425675
120	0xbdb8b7c4	-0.090194255
121	0xbf4e1dfa	-0.8051449
122	0xbf3ed9a2	-0.7455083
123	0xbf829ee8	-1.0204744
124	0xbfb31587	-1.3990945
125	0xbf559d88	-0.834435
126	0xbf729462	-0.94757664
127	0xbf434ceb	-0.7628924

bn1.running_mean f4 [128]
0	0x408f2af4	4.4739933
1	0xc0095cf8	-2.1462994
2	0x40657b47	3.5856493
3	0xc092d919	-4.589001
4	0xc0f9d450	-7.807167
5	0xbed0d48e	-0.40787166
6	0x40a9c348	5.305088
7	0x3f7da650	0.990819
8	0xbfebd4a0	-1.8424263
9	0x406bb9eb	3.6832225
10	0xbf3f123b	-0.7463719
11	0xbf80ca83	-1.0061802
12	0xc03dff41	-2.9687045
13	0xc07932b2	-3.8937192
14	0xc010471a	-2.2543397
15	0x4079875b	3.8988864
16	0x406f1f4f	3.736286
17	0xc10de66f	-8.868758
18	0xbfe7597d	-1.8074185
19	0x408647b1	4.1962514
20	0x40534274	3.300931
21	0xc04869a5	-3.131448
22	0x3f66b18a	0.90114653
23	0x404e0ee0	3.219658
24	0x3ff2701a	1.8940461
25	0xbf024009	-0.5087896
26	0xbf8c1e36	-1.094672
27	0xbf8e5052	-1.1118262
28	0x4005dfc4	2.0917826
29	0xbf86dcf4	-1.053618
30	0xc0c0f257	-6.0295825
31	0x40957361	4.6703343
32	0xc0e52459	-7.160687
33	0xc0186544	-2.3811808
34	0xbfad2cc6	-1.3529289
35	0xc05c65a7	-3.4437044
36	0xc0d3a033	-6.6133056
37	0x407243dd	3.785392
38	0x403f7142	2.9912877
39	0x406bf3a4	3.6867456
40	0xbfeeebf5	-1.8665758
41	0xc0113850	-2.269062
42	0xbfb73118	-1.4311857
43	0xbf4d1168	-0.80104685
44	0xbec2356d	-0.37931386
45	0x406b3be5	3.6755307
46	0xc064ac92	-3.5730329
47	0x406ef19c	3.7334967
48	0x3f5a3b1d	0.8524645
49	0xbfd85668	-1.6901369
50	0x4092d64e	4.5886602
51	0xbfe2641c	-1.7686801
52	0x408c5936	4.38589
53	0x408807fa	4.2509737
54	0x409e7253	4.9514556
55	0x4062075d	3.5316994
56	0xbfc99f42	-1.5751727
57	0xc00bb380	-2.1828308
58	0xbfe22cbf	-1.7669905
59	0xc0596946	-3.3970504
60	0x4098956f	4.7682414
61	0xc01f23c1	-2.4865572
62	0x405abcf9	3.417784
63	0xbfe17d21	-1.7616311
64	0xc0e7c750	-7.24308
65	0xc068853f	-3.6331327
66	0xc04bff5f	-3.1874616
67	0xc09eb6dc	-4.9598217
68	0xc0303b1b	-2.7536075
69	0xc0425d3d	-3.0369408
70	0xbf593735	-0.84849864
71	0x409ff701	4.998902
72	0xbfacd8a9	-1.350362
73	0xbf9c916a	-1.2231877
74	0xc04f06ad	-3.2347825
75	0x405d1a63	3.4547355
76	0x4062a1bd	3.5411217
77	0xbf86b4f0	-1.0523968
78	0xc02e34ee	-2.7219806
79	0x406886e4	3.633233
80	0x4071e39d	3.7795174
81	0xbf87c8fe	-1.0608213
82	0x404c0769	3.1879523
83	0xc0171cff	-2.3611448
84	0xc0bfa4fb	-5.988889
85	0xbe179ef4	-0.1480673
86	0xc0d67e85	-6.7029443
87	0x404ab45c	3.1672583
88	0xc0050e41	-2.078995
89	0x3e44f47c	0.19233888
90	0xc0d88e90	-6.7674026
91	0x3eb471f6	0.35243195
92	0xc089348b	-4.287664
93	0xc006af48	-2.1044483
94	0xc08f420b	-4.476812
95	0xbf0c3585	-0.54769164
96	0x40a58185	5.1720605
97	0xbf918fd3	-1.1372017
98	0x3ee1ffbd	0.44140425
99	0x40402c4a	3.0027032
100	0x40678cf5	3.6179783
101	0xc029efb4	-2.6552553
102	0xbf8256ad	-1.0182701
103	0x407980af	3.8984792
104	0xbf908b22	-1.129246
105	0xc01710ec	-2.3604078
106	0xc02873e4	-2.6320734
107	0xbfada1e0	-1.3565025
108	0xbf91832d	-1.1368157
109	0xc060f937	-3.5152109
110	0x4017da1a	2.3726869
111	0x3fc4ffa6	1.5390518
112	0x404ffe4a	3.2498956
113	0xc0e04618	-7.0085564
114	0x3ed08fa0	0.40734577
115	0xbe823dc0	-0.25437737
116	0x40832673	4.0984435
117	0x4055666d	3.3343766
118	0x40795647	3.895891
119	0x406d6d02	3.7097783
120	0xbf441e7b	-0.7660901
121	0x40b6f8bb	5.7178626
122	0xc0993482	-4.7876596
123	0xc0d49230	-6.642845
124	0x406c7911	3.6948893
125	0x40543f0e	3.3163486
126	0x40480ddc	3.125846
127	0xc08261eb	-4.074453

bn1.running_var f4 [128]
0	0x4015e663	2.3421867
1	0x405e8cc9	3.4773428
2	0x3f1d5f1a	0.6147324
3	0x4188f29f	17.118467
4	0x4275aac5	61.416767
5	0x3f607444	0.8767741
6	0x3f6a94d5	0.9163335
7	0x4079ac04	3.901124
8	0x3fb2c115	1.3965174
9	0x3fc69abd	1.5515972
10	0x407bc538	3.9339123
11	0x41a5fc9c	20.748344
12	0x414c0cfa	12.753168
13	0x4176c1b7	15.422294
14	0x3ffdcb62	1.9827693
15	0x4010d937	2.2632577
16	0x3fb51445	1.4146811
17	0x42b2d0cb	89.4078
18	0x402f5461	2.739525
19	0x3f4c3353	0.79765815
20	0x40233db0	2.55064
21	0x41897f18	17.187057
22	0x3f34e0ba	0.70655406
23	0x3fe3bf0c	1.7792678
24	0x3e5666f5	0.20937712
25	0x4036203d	2.8457177
26	0x3f822bf0	1.0169659
27	0x3f95c58e	1.1700914
28	0x4058284f	3.3774602
29	0x4078cb13	3.8873947
30	0x420cf8bd	35.24291
31	0x4015b577	2.3392007
32	0x420bc5cb	34.943157
33	0x401f1224	2.4854822
34	0x409eff21	4.9686437
35	0x41730e70	15.191025
36	0x42643825	57.05483
37	0x3fe7159a	1.8053467
38	0x408598e2	4.1749125
39	0x40818de5	4.048571
40	0x4065b744	3.5893106
41	0x3f34c46a	0.70612204
42	0x3ed93641	0.42424205
43	0x3f0deb5e	0.55437267
44	0x409a34ea	4.818959
45	0x40089e8d	2.1346772
46	0x3f8566d9	1.0422012
47	0x3fe0a409	1.755006
48	0x4057f087	3.3740556
49	0x400f4992	2.2388654
50	0x4003d553	2.0598953
51	0x4089c268	4.304981
52	0x3f9e59cc	1.2371154
53	0x3ffbf4f1	1.9684125
54	0x3f946227	1.1592454
55	0x3fea3476	1.829726
56	0x41774bc6	15.455999
57	0x401c55ef	2.442745
58	0x3f8ae0ac	1.0849814
59	0x41ba753b	23.307241
60	0x3f6a5e5a	0.9155022
61	0x402d6486	2.7092605
62	0x3fe7c4c2	1.8106921
63	0x3f790a93	0.9728176
64	0x42864658	67.13739
65	0x3fe7599c	1.8074222
66	0x3fff6cfa	1.9955132
67	0x420be9d3	34.978344
68	0x3f46dfa5	0.77685004
69	0x4160d7ed	14.052716
70	0x406d19d6	3.704702
71	0x3faf3e1f	1.3690833
72	0x3f7f17d7	0.9964575
73	0x3f147136	0.57985246
74	0x4016a98a	2.3540978
75	0x3f8e96ac	1.1139731
76	0x3ea601b0	0.32423162
77	0x3f2fd0ac	0.68677783
78	0x3f0a43fb	0.5400998
79	0x400bd02d	2.184581
80	0x3fbcb8d9	1.4743911
81	0x3fbcb5e5	1.474301
82	0x4016cb16	2.3561454
83	0x3f230f6a	0.63695395
84	0x41d9a639	27.206163
85	0x3ebd26e4	0.36943734
86	0x42668a9d	57.635365
87	0x4004f09e	2.077186
88	0x3fbb4d7b	1.463302
89	0x404892ed	3.1339676
90	0x425278fd	52.618153
91	0x40de41c7	6.9455295
92	0x4159f245	13.621648
93	0x405e0002	3.4687505
94	0x41409a29	12.037637
95	0x418c5fb4	17.54673
96	0x401f5716	2.4896903
97	0x3f6aaa65	0.9166625
98	0x3f3e861f	0.744234
99	0x400f7af8	2.2418804
100	0x409f8d68	4.9860115
101	0x415347be	13.205015
102	0x3f0cf4fa	0.55061305
103	0x3f8c35a2	1.0953867
104	0x3f51b972	0.8192359
105	0x41c8c58e	25.096462
106	0x4009b6aa	2.151774
107	0x40a07e12	5.0153894
108	0x3f8bff9d	1.0937382
109	0x4192b066	18.336132
110	0x3f995111	1.1977865
111	0x3f33f18a	0.70290434
112	0x3fa97f8c	1.3242049
113	0x42819c53	64.80532
114	0x40224816	2.5356498
115	0x3f1ffd6c	0.62496066
116	0x3fd3a610	1.6535053
117	0x403d1a60	2.9547348
118	0x3fe87272	1.8159926
119	0x3f96adf7	1.177184
120	0x40277768	2.616663
121	0x40041dc1	2.064316
122	0x419c8473	19.564672
123	0x425789d0	53.884583
124	0x3fd4087a	1.6565087
125	0x407e7c62	3.9763417
126	0x3fd9b026	1.7006881
127	0x41854796	16.659954

fc2.weight f4 [64, 128]
0	0xbf1eae29	-0.619845
1	0x3e59268e	0.21206114
2	0xbf911b1e	-1.13364
3	0xbfaa56cd	-1.330774
4	0xc039bb07	-2.9020402
5	0xbf6a1ee8	-0.9145341
6	0xbf8e2ffb	-1.1108392
7	0xbc015425	-0.007893597
8	0xbf059e67	-0.5219483
9	0xbebf2627	-0.37333795
10	0x3f0cc52f	0.5498838
11	0xbf46be69	-0.7763429
12	0xbfad0d70	-1.3519726
13	0xbf9d1f2e	-1.227514
14	0xbf7fcc31	-0.99920946
15	0xbebd57b5	-0.36980978
16	0x3ed93fa5	0.4243137
17	0xc030c1bc	-2.7618246
18	0x3e05dbd1	0.13072135
19	0xbeff963d	-0.4991931
20	0x3e87c9a3	0.26521024
21	0xbf0dd37f	-0.5540084
22	0xbfe7f5ff	-1.8121947
23	0x3e22b1ed	0.15888186
24	0xbfabb151	-1.3413488
25	0x3ed19f1b	0.409417
26	0xbf319bb0	-0.69378185
27	0x3f1df912	0.61708176
28	0xbf68c778	-0.90929365
29	0x3dc235f7	0.09482949
30	0xbfaa6f53	-1.3315223
31	0xbf34a409	-0.705628
32	0xbfbf4e1d	-1.4945713
33	0x3e792f17	0.2433437
34	0xbf7a7db3	-0.9784805
35	0xbf8fad0d	-1.1224686
36	0xbfac0249	-1.3438197
37	0xbe040e9e	-0.12896201
38	0x3e14bbde	0.1452479
39	0x3d9a3415	0.07529465
40	0x3ed30a3d	0.4121875
41	0xbb82d0e9	-0.003992189
42	0x3e8b7000	0.27233887
43	0xbf7290bc	-0.947521
44	0xbf674588	-0.9034047
45	0x3e5614fa	0.2090644
46	0x3e5578f4	0.20846921
47	0xbf133354	-0.57500196
48	0x3d564ef1	0.05232138
49	0x3d28d92d	0.04122274
50	0xbdecae00	-0.11556625
51	0x3ea51179	0.32239893
52	0xbf2f27d9	-0.6842018
53	0xbe0cf96a	-0.13767019
54	0xbf9d6f9f	-1.2299689
55	0xbd8e0179	-0.06933875
56	0xbefb2716	-0.49053258
57	0x3ed4a7c2	0.4153424
58	0xbf19801e	-0.59961116
59	0xbf4b9096	-0.79517496
60	0xbf3e7735	-0.74400645
61	0xbf528e2c	-0.8224819
62	0xbf361c35	-0.7113679
63	0xbdad50fc	-0.08462712
64	0xbff4bdd2	-1.9120429
65	0x3e83d81c	0.25750816
66	0x3e806d40	0.2508335
67	0xbf9b13f4	-1.2115464
68	0xbf4ad063	-0.7922422
69	0xbf469ee8	-0.7758622
70	0x3e4eebd3	0.20207147
71	0xbf817398	-1.0113401
72	0xbe3846c5	-0.17995746
73	0xbf82cf6e	-1.0219553
74	0xbf633cc2	-0.88764584
75	0xbe4b2df4	-0.19841748
76	0xbdba6771	-0.09101761
77	0x3ead0bca	0.33798057
78	0x3e46ea27	0.1942526
79	0xbf125421	-0.5715962
80	0x3e1dd15d	0.15411897
81	0x3ebef299	0.37294462
82	0xbee7dd79	-0.45286158
83	0x3e8488a5	0.25885502
84	0xbfea08d2	-1.8283942
85	0xbfbf0e75	-1.4926287
86	0xbfd12008	-1.63379
87	0xbf9b5676	-1.2135761
88	0x3eb80eb8	0.3594873
89	0x3e011d63	0.12608866
90	0xbfa7e4ac	-1.311666
91	0xbf747787	-0.95494884
92	0xbfb85b04	-1.4402776
93	0x3defaf75	0.11703388
94	0xbf5a7bde	-0.85345256
95	0xbf69b88c	-0.9129722
96	0xbf31fd54	-0.69527173
97	0xbf5ec954	-0.8702595
98	0xbf9b395c	-1.212688
99	0x3e0faa30	0.14029765
100	0xbf237b0a	-0.6385962
101	0xbf09ce00	-0.53829956
102	0xbe8e67c3	-0.2781354
103	0xbeb94a79	-0.3618963
104	0xbf215b40	-0.6302986
105	0xbfbd17c3	-1.4772877
106	0xbf3125e6	-0.69198453
107	0x3e99949e	0.29996198
108	0xbe65e3ba	-0.22450152
109	0xbf1f5b92	-0.622491
110	0xbfcb0974	-1.586226
111	0xc00c1ba9	-2.1891882
112	0x3e831c79	0.2560766
113	0xbfbf930a	-1.4966748
114	0x3e8fff4a	0.28124458
115	0xbf8a1d61	-1.0790216
116	0xbe82ac60	-0.25522137
117	0x3e98db85	0.2985498
118	0x3e626be5	0.22111471
119	0xbd6b0b68	-0.057383925
120	0x3eba6c84	0.36410916
121	0xbec96925	-0.3933803
122	0xbf30aeb3	-0.6901657
123	0xc03e776d	-2.9760392
124	0xbfdeda3a	-1.7410347
125	0x3dec330a	0.115331724
126	0xbe0be926	-0.13663158
127	0xbf99819b	-1.1992677
128	0xbfc16171	-1.5107862
129	0x3db5d5b6	0.08878653
130	0xbf4d74bb	-0.8025624
131	0x3ecbb9c4	0.39790165
132	0x40157e19	2.3358214
133	0x3ea2db47	0.3180792
134	0xbe16be84	-0.14721113
135	0xbe29ee27	-0.16594754
136	0x3e0310ff	0.12799452
137	0xbf8a6d28	-1.0814562
138	0x3cbce403	0.023057943
139	0x3ea69c79	0.32541254
140	0x3ee20165	0.4414169
141	0x3e4a707b	0.1976947
142	0x3d0e6ee8	0.034773737
143	0xbe95b5fe	-0.29240412
144	0xbf335f3d	-0.700672
145	0x4004c2ea	2.0743966
146	0x3c8aea84	0.016957529
147	0xbf029bbc	-0.5101888
148	0xbf402e37	-0.7507052
149	0x3deaa64c	0.114575
150	0x3e55cd5e	0.20879123
151	0xbf0b029b	-0.5430085
152	0x3ed24a60	0.4107237
153	0x3c61291e	0.013742713
154	0xbeb422e5	-0.35182872
155	0xbcb0ed22	-0.021597449
156	0x3d5b38a2	0.053520806
157	0x3c110faf	0.008853837
158	0x3f9fef1f	1.2494849
159	0xbe56f97e	-0.20993611
160	0x3fa6a6a3	1.3019603
161	0x3c574fe7	0.013141609
162	0x3e7be989	0.24600805
163	0x3ea92915	0.33039156
164	0x3fb1d216	1.3892238
165	0xbe037637	-0.12838064
166	0xbe93f40c	-0.2889713
167	0xbeec2999	-0.46125486
168	0xbd8f5b1c	-0.069997996
169	0x3c653471	0.013989554
170	0xbecb9d62	-0.3976851
171	0x3ec5a78f	0.386044
172	0x3d01988f	0.03163963
173	0xbf33745e	-0.7009944
174	0xbe18adca	-0.14910045
175	0xbefd38e1	-0.49457458
176	0xbe2d1c5d	-0.16905351
177	0xbd9d8e25	-0.076931275
178	0xbf943d16	-1.1581142
179	0xbd0131a3	-0.031541478
180	0xbf262648	-0.6490216
181	0xbea9a12a	-0.3313077
182	0xbe4224a5	-0.18959291
183	0xbe919af8	-0.28438544
184	0x3dc2a44b	0.09503993
185	0x3cc8c037	0.024505718
186	0x3e0acfd9	0.1355585
187	0x3f1b5193	0.6067135
188	0xbee67dd7	-0.45017883
189	0x3e0e4f2e	0.13897392
190	0xbfb9de19	-1.4520904
191	0xbde413d9	-0.11136598
192	0x3fdd444e	1.728647
193	0xbe0ab718	-0.13546407
194	0xbe9b0e95	-0.30284563
195	0x3f5bb431	0.85821825
196	0x3ba25ede	0.0049551567
197	0x3ea872df	0.3290014
198	0x3d54f25f	0.051988956
199	0xbf0ea9ec	-0.5572803
200	0x3c3300a0	0.010925442
201	0x3d2db213	0.042406153
202	0x3d9d60f9	0.07684512
203	0xbf5a97ad	-0.8538769
204	0xbfe718b7	-1.8054417
205	0xbdc8ba36	-0.09801142
206	0xbd6dd3f3	-0.05806346
207	0xbe67b58b	-0.22627847
208	0xbf229d93	-0.6352169
209	0xbe9b178c	-0.30291402
210	0xbedc5b4b	-0.430384
211	0xbde13194	-0.109957844
212	0x3fa23829	1.2673389
213	0x3eb2aa88	0.3489573
214	0x3fc18851	1.5119725
215	0x3dddfbdd	0.10839055
216	0xbd04cea4	-0.03242363
217	0xbe6e55ae	-0.23274872
218	0x3f6bed18	0.9215865
219	0x3dc9d009	0.09854133
220	0x3eae4105	0.3403398
221	0xbd0aa72d	-0.033850837
222	0x3e3cc0e2	0.18432954
223	0x3e6e5858	0.23275888
224	0xbee220b4	-0.44165576
225	0xbeb8ea52	-0.36116272
226	0x3ebc7df3	0.36814842
227	0xbf8ff67e	-1.1247098
228	0xbf353ab3	-0.7079269
229	0xbce6623b	-0.028123012
230	0xbd52ec8a	-0.051495112
231	0xbfda2238	-1.7041693
232	0x3e68ad12	0.22722271
233	0x3e8ba7fe	0.27276605
234	0x3d987a65	0.0744522
235	0xbc74aff9	-0.014934533
236	0x3e4d8924	0.20071846
237	0x3e81a6c4	0.25322545
238	0x3d91626a	0.07098849
239	0xbdd3a97c	-0.10335061
240	0xbf1b80ae	-0.60743225
241	0x3f96e37c	1.1788173
242	0x3c50262b	0.012704412
243	0x3e1bdf6e	0.1522195
244	0xbede97d9	-0.43475226
245	0xbf387298	-0.72049856
246	0xbece2658	-0.4026363
247	0xbee1e548	-0.4412024
248	0x3da6f48b	0.081521116
249	0xbea91ee5	-0.33031383
250	0x3f2312e4	0.637007
251	0x400fd635	2.2474492
252	0x3e2562b8	0.1615094
253	0xbee21397	-0.4415557
254	0xbee07974	-0.4384266
255	0x3f00505f	0.50122637

fc2.bias f4 [64]
0	0x3e4f881e	0.20266768
1	0xbe169784	-0.14706236
2	0xbcd0a0ae	-0.025467243
3	0xbd3f75b1	-0.0467431
4	0x3c217d61	0.009856553
5	0x3cc326fc	0.0238223
6	0x3e68b8d2	0.22726753
7	0xbb8ac572	-0.004234963
8	0x3d7aa3b3	0.061191272
9	0x3d761ff5	0.06008907
10	0xbcda0c6e	-0.026617255
11	0x3d2a01fc	0.0415058
12	0xbcbe0ec8	-0.023200408
13	0xbd9198a9	-0.07109196
14	0x3d680ea2	0.05665458
15	0xbdac75c3	-0.08420899
16	0x3e326d5c	0.1742453
17	0xbe10fdf1	-0.14159371
18	0xbde86793	-0.1134788
19	0xbdbba2e6	-0.0916193
20	0xbde96199	-0.113955684
21	0xbd07f3e6	-0.033191584
22	0x3d7f3c45	0.062313337
23	0x3e2e081c	0.16995281
24	0x3e5245e3	0.20534472
25	0xbd9fc7e4	-0.07801798
26	0xbe40d111	-0.18829753
27	0x3e76f8fc	0.24118418
28	0xbdb205b9	-0.08692498
29	0xbdb251eb	-0.08707031
30	0x3e42dcc6	0.19029531
31	0x3de1822d	0.11011157
32	0x3d032a3a	0.032022692
33	0x3dd7648e	0.10517226
34	0xbe3e9177	-0.18610178
35	0x3e82e6b0	0.25566626
36	0x3c1c95bf	0.009557187
37	0xbd9a5b92	-0.07536997
38	0xbe037213	-0.12836485
39	0x3dc07fdd	0.09399388
40	0xbe26c540	-0.16286182
41	0x3d41a431	0.047275726
42	0x3debdb43	0.1151643
43	0x3d5631ec	0.052293703
44	0x3e753d5b	0.23949187
45	0x3e021b33	0.12705688
46	0x3e1d4b08	0.15360653
47	0xbd25d40c	-0.040485427
48	0x3d457f93	0.048217367
49	0x3d872624	0.065990716
50	0x3af4f623	0.0018689077
51	0xbe2c606c	-0.16833657
52	0xbdf5f0c7	-0.12008815
53	0x3dbe4324	0.0929015
54	0x3e143f51	0.14477278
55	0xbda7f24e	-0.08200513
56	0x3e2a28a9	0.16617073
57	0xbde92d19	-0.11385555
58	0x3cca3a69	0.024686055
59	0xbe0d8124	-0.13818794
60	0x3bdcc616	0.006737481
61	0xbdbe6f37	-0.09298556
62	0x3d53c00c	0.051696822
63	0xbe822a20	-0.25422764

bn2.weight f4 [64]
0	0x3fdd3f34	1.7284913
1	0x3f8e47cb	1.111566
2	0x3faef6d9	1.3669082
3	0x3fea3b8e	1.8299425
4	0x3fbba5aa	1.4659932
5	0x3fa830a8	1.3139849
6	0x3fb02496	1.3761165
7	0x3f86e6e9	1.0539218
8	0x3f8799be	1.0593793
9	0x3ffb0da5	1.9613539
10	0x3fb64c7b	1.424209
11	0x3f96894c	1.176065
12	0x3f89ec28	1.0775194
13	0x3f9a0506	1.2032783
14	0x3feceddf	1.8510092
15	0x3fb51ad5	1.4148813
16	0x3fac1dd3	1.3446602
17	0x40076564	2.1155634
18	0x3fd3ee55	1.6557108
19	0x3fe9859f	1.8243903
20	0x3fb54c59	1.4163924
21	0x3fbbdba0	1.4676399
22	0x3fde0683	1.7345737
23	0x3fb60623	1.4220623
24	0x3fae9b21	1.3641092
25	0x3fdbb313	1.7164024
26	0x3fc3e44b	1.5304044
27	0x3fbdd5fa	1.4830925
28	0x3fbd6b1b	1.4798311
29	0x3febf46a	1.8433964
30	0x3ff5bcfe	1.9198301
31	0x3ff10ba2	1.8831675
32	0x3faeb675	1.3649431
33	0x3fd521f8	1.6650991
34	0x3fa701eb	1.304746
35	0x3fc9ab80	1.5755463
36	0x3fbd0be2	1.4769251
37	0x3fe9e051	1.8271581
38	0x3ffc7df7	1.9725941
39	0x3fa9cf3a	1.3266366
40	0x3f921249	1.141183
41	0x3ff05350	1.8775425
42	0x3fa1cba2	1.2640269
43	0x3f8bc57a	1.091964
44	0x3fa59dfe	1.293884
45	0x3fb413dd	1.4068562
46	0x3f8ef3bc	1.1168132
47	0x3fb30e91	1.398882
48	0x3ffd327b	1.978103
49	0x3f9bf81d	1.2185093
50	0x3faca667	1.3488282
51	0x3faa6df5	1.3314806
52	0x3f855088	1.0415201
53	0x3fd4c61e	1.662296
54	0x3fa0d7a0	1.2565804
55	0x3f9b958d	1.2155014
56	0x3ffd5e98	1.9794493
57	0x40051aea	2.0797677
58	0x3fdab521	1.7086526
59	0x3fc386c4	1.5275502
60	0x3faf361f	1.3688391
61	0x3f964967	1.1741151
62	0x3ff27e4e	1.8944795
63	0x3fc03711	1.5016805

bn2.bias f4 [64]
0	0xbdabee3e	-0.083950505
1	0xbf1c97c1	-0.6116906
2	0xbe2db1f7	-0.1696242
3	0xbd3b3550	-0.04570514
4	0xbe249c87	-0.16075335
5	0xbebf8bea	-0.37411433
6	0xbed59fc8	-0.41723466
7	0xbf2b2846	-0.6685833
8	0xbf2877c9	-0.6580778
9	0x3da85987	0.08220201
10	0xbe8ac691	-0.2710462
11	0xbf1592c4	-0.5842707
12	0xbf2ed906	-0.682999
13	0xbf35e0d5	-0.7104619
14	0xbe65a8ed	-0.22427721
15	0xbe0a97a4	-0.13534409
16	0xbedf42ec	-0.43605745
17	0xbe2c2d00	-0.16814041
18	0xbf0e8871	-0.55676943
19	0x3c846e40	0.016165853
20	0xbea1afb8	-0.31579375
21	0xbf35942b	-0.7092921
22	0xbe32794c	-0.17429084
23	0xbeb4d54f	-0.35318992
24	0xbf114907	-0.56752056
25	0xbe0db2dd	-0.13837762
26	0xbda8360c	-0.082134336
27	0xbf3c0e9b	-0.73459786
28	0xbf0df4e6	-0.5545181
29	0xbe110b17	-0.14164387
30	0xbdfdf2ed	-0.1239985
31	0xbdda4a7f	-0.1065874
32	0xbe478cbe	-0.19487283
33	0xbe4ebaac	-0.20188397
34	0xbe80b48f	-0.25137755
35	0xbd5e64fe	-0.054295532
36	0xbe52b05e	-0.20575091
37	0xbdcf526b	-0.10123142
38	0xbde0222f	-0.1094402
39	0xbe5615bf	-0.20906733
40	0xbf1965d2	-0.5992099
41	0xbd9c36df	-0.07627653
42	0xbecf9f37	-0.4055116
43	0xbf29f1c9	-0.6638456
44	0xbea2696c	-0.31721056
45	0xbdaa646d	-0.08319936
46	0xbf114659	-0.56747967
47	0xbe2114d5	-0.15730603
48	0xbd57a0f4	-0.05264373
49	0xbee6927d	-0.45033637
50	0xbe517c31	-0.20457532
51	0xbe8ad11a	-0.27112657
52	0xbf36549a	-0.7122284
53	0xbe29a8ce	-0.165683
54	0xbe8ae774	-0.2712971
55	0xbf4696ce	-0.7757386
56	0xbdbfa084	-0.09356788
57	0x3d747a80	0.059687138
58	0xbe91a2f8	-0.28444648
59	0xbe16c8a4	-0.14724976
60	0xbef70738	-0.48247695
61	0xbe9d1b9e	-0.30685133
62	0xbdedfd1b	-0.11620542
63	0xbd8037e2	-0.06260659

bn2.running_mean f4 [64]
0	0xc04e9f7f	-3.2284849
1	0xbdbcee1c	-0.09225103
2	0xbefa0b1b	-0.48836598
3	0xc0266071	-2.5996363
4	0xbf632984	-0.8873522
5	0xbf93117f	-1.1489714
6	0x3f861bef	1.0477275
7	0xbebccaf2	-0.36873585
8	0xbf0c869b	-0.5489289
9	0xbf408fd3	-0.7521946
10	0xbf7878b6	-0.9705919
11	0xbe7022e7	-0.23450814
12	0xbf27804e	-0.6543015
13	0xbeefd13c	-0.4683932
14	0xc01b4d8f	-2.4266088
15	0xbf136f49	-0.5759168
16	0x3f9113c1	1.1334153
17	0xc03602bf	-2.8439176
18	0xc09fdf55	-4.996012
19	0xc0102286	-2.2521071
20	0xbf4991de	-0.787382
21	0xc0954930	-4.665184
22	0xc02afb1d	-2.6715767
23	0xbf47578c	-0.7786796
24	0x3e4163e2	0.18885759
25	0xc073124b	-3.7979915
26	0xbe6f410d	-0.23364659
27	0xc0902b3e	-4.5052786
28	0xbf45fa63	-0.77335185
29	0xc02140f1	-2.5195887
30	0xc01f8796	-2.4926505
31	0xc03db254	-2.9640093
32	0xbf6007b0	-0.8751173
33	0xc052cffc	-3.2939444
34	0xbf94da54	-1.1629128
35	0x3e92e5e8	0.2869103
36	0xbf06e0cc	-0.5268676
37	0xc02dd21f	-2.7159498
38	0xc060e4cd	-3.513965
39	0xbef2a1b4	-0.47388995
40	0xbe809f9a	-0.25121766
41	0xc0348703	-2.8207405
42	0xbf8ff5f6	-1.1246936
43	0x4132b296	11.1686
44	0xbf609d20	-0.87739754
45	0xbce9f90e	-0.028561141
46	0x3d971eec	0.07378945
47	0xbf727429	-0.94708496
48	0xc0053b6e	-2.0817523
49	0x40e3ce12	7.118905
50	0xbf2d876c	-0.6778476
51	0xbf714fdb	-0.94262475
52	0xbf564dfc	-0.83712745
53	0xc046b423	-3.1047447
54	0x40cbe31c	6.3714733
55	0x4180349a	16.025684
56	0xbfff7fd4	-1.9960885
57	0xbfbc2b86	-1.4700782
58	0xc062d541	-3.544266
59	0xbef83b81	-0.48482898
60	0xbefb9b9e	-0.49142164
61	0x41161078	9.379021
62	0xc034afbd	-2.8232262
63	0xbedceba6	-0.43148535

bn2.running_var f4 [64]
0	0x428668c5	67.20463
1	0x40f8d36c	7.7758083
2	0x419f01d3	19.87589
3	0x42885a26	68.17607
4	0x419d8328	19.689041
5	0x41a6261f	20.768614
6	0x42bdc52d	94.88511
7	0x4105a48f	8.352675
8	0x411ac520	9.673126
9	0x423126f9	44.28806
10	0x41aa7d8f	21.311308
11	0x4100586f	8.02159
12	0x4107ea3a	8.494684
13	0x410c9c13	8.788104
14	0x425d91d5	55.392414
15	0x41a31d42	20.389286
16	0x42b2acee	89.33775
17	0x4271ac87	60.418484
18	0x4268c287	58.18997
19	0x426a784c	58.617477
20	0x41b03596	22.026165
21	0x424fe97f	51.978024
22	0x4278a151	62.157536
23	0x41ad0c75	21.631083
24	0x4285e05e	66.93822
25	0x42910b41	72.52198
26	0x41a45d58	20.545578
27	0x4218e890	38.22711
28	0x42a11c81	80.55567
29	0x425f4bc9	55.82401
30	0x426f5e6b	59.842205
31	0x428c1d32	70.05702
32	0x41a410c2	20.508183
33	0x428fb28d	71.84873
34	0x41a364c6	20.424206
35	0x41b1124e	22.133938
36	0x41a0aa3f	20.083128
37	0x4273f34f	60.987606
38	0x4296f9d5	75.48795
39	0x41b19858	22.199387
40	0x40efbb8f	7.4916453
41	0x428e4d17	71.150566
42	0x41a033b0	20.025238
43	0x4248a759	50.163425
44	0x41ae348e	21.775661
45	0x41a7a734	20.956642
46	0x41039b67	8.22544
47	0x41a0467d	20.034418
48	0x424713b7	49.769253
49	0x422ea8f8	43.66501
50	0x41a5ca22	20.723698
51	0x41a97749	21.183245
52	0x40f31bc8	7.5971413
53	0x428b3ee7	69.622856
54	0x422710bf	41.766354
55	0x4259c465	54.44179
56	0x42478276	49.877403
57	0x4233abbf	44.91772
58	0x42919eea	72.81038
59	0x419ee4e0	19.861755
60	0x42b119d6	88.55046
61	0x4240b9c2	48.181404
62	0x42856506	66.69731
63	0x41acb1e3	21.586859

fc3.weight f4 [1, 64]
0	0x3f124906	0.57142675
1	0x3e87fa72	0.26558262
2	0x3eb447c3	0.35211
3	0x3ec72dac	0.38902032
4	0x3ea0871c	0.3135308
5	0x3ea86c9a	0.32895356
6	0xbf28751a	-0.6580368
7	0x3e8b9e68	0.27269292
8	0x3e8e179c	0.27752388
9	0x3f06cf5e	0.5266017
10	0x3e928242	0.28615004
11	0x3eaa9ad7	0.33321258
12	0x3ea576cd	0.323172
13	0x3e90f85b	0.2831448
14	0x3f06393d	0.5243109
15	0x3eba3d0f	0.3637471
16	0xbf28878d	-0.65831834
17	0x3eddf191	0.43348363
18	0x3f427c0c	0.7597053
19	0x3f0489a9	0.5177255
20	0x3ea37eb8	0.31932616
21	0xbfa7f86e	-1.312269
22	0x3f05100e	0.5197762
23	0x3ebcba6e	0.36860985
24	0xbf5e2fdd	-0.86791784
25	0x3f1152f9	0.5676723
26	0x3eaa8c17	0.33310005
27	0xbfaf16ac	-1.3678794
28	0xbf5eb564	-0.8699553
29	0x3ef4abe2	0.47787386
30	0x3ed776b5	0.42082754
31	0x3efd3f11	0.49462178
32	0x3e8dab25	0.27669635
33	0x3eead95c	0.45868957
34	0x3eaf8cea	0.34287196
35	0x3e8def89	0.27721813
36	0x3ea65af1	0.32491258
37	0x3f01165a	0.5042473
38	0x3eedacde	0.4642095
39	0x3e940ac1	0.28914455
40	0x3e8f7ff0	0.28027296
41	0x3f04f039	0.5192905
42	0x3e9826da	0.2971714
43	0xbedd5467	-0.43228456
44	0x3eb9c2f2	0.36281544
45	0x3ea41719	0.32048872
46	0x3e96077d	0.29302588
47	0x3e9edf53	0.31029758
48	0x3efff537	0.49991772
49	0xbeff01f9	-0.49806193
50	0x3eab0739	0.33403948
51	0x3ebf06e4	0.37309945
52	0x3eb31c3f	0.34982488
53	0x3effaa19	0.49934462
54	0xbeca69f9	-0.39533976
55	0xbf2f8b98	-0.6857238
56	0x3ede6c8e	0.43442196
57	0x3ee2ca2e	0.44294876
58	0x3f107535	0.56428844
59	0x3eb441e9	0.35206535
60	0xbf3926fd	-0.72325116
61	0xbe9561fe	-0.29176325
62	0x3efa8b0a	0.48934203
63	0x3ea78793	0.32720622
